base_models/checkpoint_tinynerf.pt (torch, 102807 bytes, 6 tensors)

layer1.weight f4 [128, 63]
0	0xbd919f14	-0.0711042
1	0x3c6da2f7	0.014504186
2	0x3eb78c6c	0.3584932
3	0xbe45b153	-0.19305925
4	0x3e4d284f	0.20034908
5	0x3ea7dd0d	0.32785836
6	0xbe5d24ff	-0.21596144
7	0xbdf15497	-0.11783712
8	0xbd2ed732	-0.042685695
9	0xbe9392e5	-0.2882301
10	0x3ef9ce12	0.48790032
11	0x3e0dc877	0.13846003
12	0xbf256999	-0.64614254
13	0xbec8271b	-0.39092335
14	0xbee8c88e	-0.4546551
15	0xbe5fd054	-0.21856815
16	0x3f23d2f7	0.6399378
17	0x3e7286b3	0.23684196
18	0xbf37d100	-0.71803284
19	0x3f180f71	0.5939856
20	0xbe700c1b	-0.23442118
21	0x3ea0ab1c	0.31380546
22	0x3f2d5e31	0.6772185
23	0xbe4352fd	-0.19074626
24	0xbf1a4396	-0.6025938
25	0x3e35b05d	0.17743059
26	0x3f1b4fdc	0.6066873
27	0xbe8a706e	-0.27038902
28	0xbc6e00c3	-0.014526549
29	0xbe2efabb	-0.17087834
30	0xbe0ded31	-0.13860013
31	0xbe43e3d8	-0.19129884
32	0xbd59c5fd	-0.053167332
33	0xbe50e2b8	-0.20398986
34	0xbc178d1b	-0.009249951
35	0xbe231b14	-0.15928298
36	0xbcbbc3cd	-0.022920514
37	0xbe0be596	-0.13661799
38	0x3e0c8fc3	0.13726716
39	0xbd262b9f	-0.040568944
40	0x3d36b1e7	0.044603255
41	0x3d97bbfb	0.07408901
42	0x3d8b980e	0.068161115
43	0x3d01865d	0.03162228
44	0x3d847ff5	0.06469718
45	0xbc9d7ac9	-0.019223588
46	0x3c4e99b4	0.012609888
47	0x3d48751f	0.04893982
48	0x3cfe05f0	0.03100869
49	0x3c971230	0.01844129
50	0x3baf449e	0.005348756
51	0xbcb83aa1	-0.022488894
52	0xbc3d2d3c	-0.011546429
53	0x3c3b68e8	0.011438586
54	0x3c161225	0.009159599
55	0xbd3125fa	-0.043249108
56	0xbcdc45a1	-0.02688867
57	0x3d1fd3c1	0.039020304
58	0xbd79c075	-0.060974557
59	0xbd71f7b1	-0.059074108
60	0xbb041f9b	-0.002016044
61	0x3be5930e	0.0070060557
62	0x3cf969ca	0.030445952
63	0xbe9e63ef	-0.30935618
64	0xbeb52472	-0.35379368
65	0xbddbfc29	-0.10741455
66	0xbe2634ec	-0.16231126
67	0xbe9bf16f	-0.30457637
68	0x3d77215f	0.06033456
69	0xbe2f7f35	-0.1713837
70	0xbe227c4a	-0.15867725
71	0xbe67e631	-0.22646405
72	0xbdcde727	-0.100538544
73	0xbd8502c1	-0.06494666
74	0x3d5be30e	0.053683333
75	0xbe8c8300	-0.27443695
76	0xbe5d32d2	-0.21601418
77	0xbf18a69f	-0.59629244
78	0xbe0cfba6	-0.13767871
79	0xbe7d913a	-0.24762431
80	0xbe60dbbd	-0.21958824
81	0xbd9b7e7d	-0.07592485
82	0x3e9afe75	0.3027226
83	0xbeca6262	-0.39528185
84	0x3eab4cc2	0.33457
85	0x3dc571c0	0.09640837
86	0x3f03cd54	0.5148518
87	0x3ecd5d1f	0.40110108
88	0xbef0557a	-0.46940213
89	0x3dc87c47	0.09789329
90	0xbd9fcf65	-0.07803229
91	0xbe981fc8	-0.29711747
92	0xbde4fe7e	-0.11181353
93	0xbec84e3a	-0.39122182
94	0x3f8ccbdb	1.0999712
95	0x3e84a2bc	0.25905406
96	0xbba4f235	-0.005033756
97	0xbaf30726	-0.0018541559
98	0x3e303962	0.1720939
99	0xbd65ea6a	-0.056131758
100	0xbeb8ed26	-0.3611843
101	0x3d35ed3a	0.04441569
102	0xbd096be7	-0.03355017
103	0xbc85ffbf	-0.0163573
104	0xbd276b03	-0.04087354
105	0xbd3ff86d	-0.046867777
106	0x3dbae6fd	0.09126089
107	0xbd1ff277	-0.039049592
108	0x3c944440	0.01809895
109	0x3c029bd2	0.007971721
110	0xbcb30db7	-0.021857126
111	0xbbfbef93	-0.0076884716
112	0xbcc3fe2b	-0.023924908
113	0xbb41ca83	-0.002957017
114	0xbd338df8	-0.043836564
115	0x3db90495	0.09034077
116	0x3b28a35e	0.002573214
117	0xbc1a313b	-0.0094111515
118	0xbbe677e9	-0.0070333374
119	0x3cf2977c	0.029613249
120	0x38b60898	8.680037e-05
121	0x3b311010	0.002701763
122	0xbbd7e823	-0.006588952
123	0xbce80b1e	-0.028325614
124	0xbc27b77a	-0.010236615
125	0xbcd91f31	-0.026504131
126	0x3b6f0830	0.0036473386
127	0xbcdec26d	-0.027192319
128	0xbc87f0c2	-0.016594294
129	0xbdde18b0	-0.108445525
130	0xbe1cff5c	-0.15331787
131	0x3c3b8a4c	0.011446547
132	0x3c5e6103	0.013572934
133	0x3e1fed73	0.15617923
134	0x3d204d88	0.03913644
135	0x3d6d4f86	0.057937168
136	0xbdac2ef7	-0.08407395
137	0xbde885fe	-0.11353682
138	0x3dc5bba8	0.09654933
139	0x3e93ee6e	0.28892845
140	0xbe8caa15	-0.27473512
141	0x3c3bd740	0.011464894
142	0xbe192f0b	-0.14959352
143	0xbeaca449	-0.3371909
144	0x3e952ce1	0.29135802
145	0xbe9930c5	-0.2992002
146	0xbf2ee79c	-0.6832216
147	0x3d55de6f	0.052214082
148	0xbc37278a	-0.01117886
149	0xbe19d92b	-0.1502425
150	0x3e8af054	0.2713648
151	0x3ed71c98	0.42014003
152	0x3e516f4b	0.20452611
153	0x3cbf028d	0.023316646
154	0x3f1f58ee	0.6224507
155	0xbddc6aff	-0.107625954
156	0x3e8e5939	0.27802446
157	0x3e313f9e	0.17309424
158	0xbc23412e	-0.0099642705
159	0xbd544080	-0.051819324
160	0x3e5b29a0	0.21402597
161	0x3e0d4766	0.13796768
162	0x3d87a3b0	0.06623018
163	0x3e748520	0.23878908
164	0xbe1f66a3	-0.15566497
165	0xbc737eaa	-0.014861742
166	0xbe031ea8	-0.12804663
167	0xbda9e8b2	-0.08296336
168	0xbe003b1c	-0.12522548
169	0xbd7aa1d6	-0.061189495
170	0xbb3a3bed	-0.0028417066
171	0x3c654123	0.013992581
172	0xbc304a7e	-0.010759948
173	0xbc40c593	-0.011765855
174	0xbc1aff03	-0.009460214
175	0x3cb81aed	0.022473777
176	0x3be7944f	0.0070672403
177	0xbc6ebf93	-0.014572042
178	0xba9811a9	-0.0011601943
179	0x3b8bd364	0.004267143
180	0x3d0b8df9	0.034070943
181	0xbbb42d6f	-0.00549858
182	0x3cf9a3ef	0.030473677
183	0xbbfef2fb	-0.0077804304
184	0x3cd2b983	0.025723225
185	0xbc85aef3	-0.016318774
186	0x3bd40dba	0.006471363
187	0xbcbb8e32	-0.022894952
188	0xbbf3d281	-0.0074408655
189	0x3d1d4e42	0.03840471
190	0xbcbd9375	-0.023141602
191	0xbeb4521c	-0.35218894
192	0x3e3cbe19	0.18431892
193	0xbc67d6bc	-0.014150318
194	0xbe887a44	-0.2665578
195	0xbebf7c89	-0.373997
196	0xbed4e217	-0.41578743
197	0xbea4c4c8	-0.32181382
198	0x3d5cd3a7	0.053912785
199	0xbc7df40a	-0.015500078
200	0xbe91d85c	-0.28485382
201	0xbf2bd2ad	-0.6711834
202	0x3eb3e67a	0.35136777
203	0xbe807917	-0.25092384
204	0x3e882435	0.26590124
205	0x3f0e9ea3	0.5571081
206	0x3d4ba152	0.049714394
207	0xbf543f96	-0.82909524
208	0xbd81afae	-0.06332336
209	0xbe3c21d4	-0.1837228
210	0xbecb625c	-0.3972348
211	0x3f3f1f95	0.74657565
212	0x3beb98e1	0.0071898554
213	0x3e343139	0.17596902
214	0x3ecc1c20	0.39865208
215	0xbde5c171	-0.11218537
216	0x3c749622	0.014928373
217	0xbd8d5de7	-0.06902676
218	0x3d9a7b2a	0.07543023
219	0xbf3573dc	-0.7087991
220	0x3e5e29fb	0.21695702
221	0xbeb9ca3b	-0.36287102
222	0x3ca010e4	0.019539304
223	0xbdcd7c37	-0.10033458
224	0xbf1748f3	-0.59095687
225	0x3eedf645	0.4647695
226	0xbdcce16f	-0.100039355
227	0xbe5300cd	-0.20605774
228	0x3e846589	0.25858715
229	0xbaadaf13	-0.0013251029
230	0x3dfe1e48	0.124081194
231	0xbded57be	-0.11589001
232	0x39c10d93	0.00036821942
233	0x3ea7cdd3	0.3277422
234	0xbd8000b8	-0.06250137
235	0xbd43d4a8	-0.047810227
236	0x3db0f2f1	0.086400874
237	0x3cadb1eb	0.021203002
238	0xbca10f7e	-0.019660708
239	0x3d949ea2	0.07256819
240	0x3c58e5ba	0.013238365
241	0x3ccef519	0.025263356
242	0x3d146033	0.036224555
243	0x3d199146	0.03749206
244	0xbd6d5922	-0.05794633
245	0x3cfcf4f9	0.03087853
246	0x3bda1e53	0.006656447
247	0x3d10b80c	0.03533177
248	0xbb64ba51	-0.0034901092
249	0x3d2ddba7	0.042445805
250	0x3c4c8d9f	0.012484937
251	0xbcaf3df0	-0.021391839
252	0xbea5cafa	-0.3238142
253	0x3ebe1bea	0.37130672
254	0xbed7dae0	-0.42159176
255	0xbe80011a	-0.2500084

layer1.bias f4 [128]
0	0xbc681555	-0.014165242
1	0xbdc65b68	-0.09685403
2	0x3dfcfda9	0.12353069
3	0xbea5ef39	-0.32409075
4	0xbd966bbc	-0.073447675
5	0xbd2783c3	-0.040897142
6	0xbf1b9111	-0.6076823
7	0xbd2865f6	-0.041112863
8	0xbe57cea7	-0.21074925
9	0xbe9d2293	-0.3069044
10	0xbc70a2fe	-0.014687298
11	0xbd7916aa	-0.06081263
12	0xbdbd21c4	-0.09234956
13	0x3e19531b	0.14973108
14	0xbdfc3a7a	-0.12315841
15	0xbe9848fb	-0.2974318
16	0xbe25c63e	-0.16188905
17	0xbe6ad2c9	-0.2293197
18	0x3d962bc9	0.0733257
19	0xbd3bd6d6	-0.04585918
20	0xbdde99c3	-0.108691715
21	0xbe5576f7	-0.20846163
22	0xbe703884	-0.23459059
23	0xbd62ee69	-0.055403147
24	0xbe4bd2b2	-0.19904593
25	0xbe31921c	-0.17340893
26	0x3d50d36b	0.050982874
27	0xbe8fa7d7	-0.2805774
28	0xbde17b68	-0.11009866
29	0xbd90026e	-0.070317134
30	0xbe6e1e1f	-0.23253678
31	0xbe082899	-0.13296737
32	0xbe9358bf	-0.28778645
33	0xbcbe2163	-0.02320928
34	0xbed09958	-0.40741992
35	0xbe82f1b7	-0.2557504
36	0xbe8653c1	-0.26235774
37	0xbdc1e37e	-0.09467219
38	0xbe590276	-0.21192345
39	0xbe44a1c5	-0.19202335
40	0xbe63ea37	-0.22257315
41	0xbc7b9710	-0.01535584
42	0xbe2412ee	-0.16022846
43	0xbdf5c86d	-0.12001119
44	0xbe80d28d	-0.25160637
45	0xbe113fc7	-0.14184485
46	0xbdccee8d	-0.100064375
47	0xbe21a204	-0.1578446
48	0xbbcd75be	-0.0062701395
49	0xbe24d021	-0.1609502
50	0xbeaf4d7d	-0.34238806
51	0xbdcf9027	-0.10134917
52	0xbe9a80fd	-0.30176535
53	0xba7af45d	-0.0009573156
54	0xbe85afae	-0.26110595
55	0xbe944bd5	-0.28964105
56	0xbe0c72ed	-0.13715716
57	0xbea4eb27	-0.32210657
58	0xbe926255	-0.28590646
59	0xbe93b522	-0.2884913
60	0x3df7be1c	0.12096807
61	0xbe3a58cf	-0.1819794
62	0xbe442429	-0.19154419
63	0xbd9bf0db	-0.07614299
64	0xbe905ca1	-0.2819567
65	0x3d92b4d0	0.071633935
66	0x3d399abc	0.04531358
67	0xbd9be205	-0.07611469
68	0xbe44ec3c	-0.19230741
69	0x3d102954	0.035195664
70	0xbe0ecdbb	-0.13945667
71	0xbc2e57e7	-0.010641075
72	0xbe300073	-0.17187671
73	0xbdd7fe60	-0.10546565
74	0x3d662ad2	0.05619318
75	0xbda3df2c	-0.08001551
76	0xbe944d3e	-0.2896518
77	0xbe1e5d99	-0.15465392
78	0x3ba99635	0.005175377
79	0xbe7f8ea4	-0.24956757
80	0xbe72f108	-0.23724759
81	0xbe6b3b41	-0.22971822
82	0xbe4c1dd1	-0.19933249
83	0xbdf59020	-0.1199038
84	0xbe258d33	-0.16167144
85	0xbe3faf09	-0.18719114
86	0x3c283d9a	0.010268593
87	0xbdd18c86	-0.10231881
88	0x3da6bf3a	0.08141942
89	0xbe3d84dc	-0.18507713
90	0xbcce70e9	-0.025200324
91	0xbdbe4911	-0.0929128
92	0xbe95f9ea	-0.29292232
93	0xbdead5c8	-0.11466557
94	0xbec8b183	-0.3919793
95	0xbe4703ad	-0.19434996
96	0x3c78d4b8	0.015187435
97	0xbe15b7c5	-0.14620884
98	0xbe8a9588	-0.27067208
99	0xbddbe925	-0.10737828
100	0xbe4f0d47	-0.20219909
101	0xbd563455	-0.052296
102	0xbd7277c8	-0.059196264
103	0x3d6f498d	0.058419753
104	0x3c9f30ff	0.019432543
105	0xbc3ca1aa	-0.011513153
106	0xbe1ee410	-0.15516686
107	0xbd8eea38	-0.069782674
108	0xbb02dff2	-0.0019969908
109	0xbdb3bd2c	-0.08776316
110	0xbe96c42e	-0.29446548
111	0xbe4a28f1	-0.1974218
112	0xbd86d543	-0.06583645
113	0xbe9084d4	-0.2822634
114	0xbd8e5e5e	-0.06951593
115	0xbe58ae42	-0.21160224
116	0x3d9f8498	0.07788962
117	0xbdff6d06	-0.124719664
118	0x3dd39e2c	0.10332903
119	0xbe39bb07	-0.18137752
120	0xbe834761	-0.25640395
121	0xbe279375	-0.16364844
122	0xbea5319b	-0.32264408
123	0x3dafa976	0.08577244
124	0xbe4269a5	-0.18985613
125	0xbde902d3	-0.11377492
126	0xbea7fb9d	-0.32809153
127	0xbe984ae6	-0.29744643

layer2.weight f4 [128, 128]
0	0x3c3eb5d0	0.011640027
1	0x3c66a101	0.014076472
2	0xbdbead4d	-0.09310398
3	0x3d8bf7c4	0.06834367
4	0x3d8950ac	0.0670484
5	0xbcf5ab88	-0.029989019
6	0x3e1755e9	0.14778866
7	0xbceef886	-0.02917124
8	0xbe2dcdb9	-0.16973008
9	0x3d8a361a	0.067486
10	0xbdabe38a	-0.08393009
11	0xbd642ece	-0.0557087
12	0xbdc6e4de	-0.09711622
13	0xbdcacb85	-0.099020995
14	0x3d34caf1	0.044138853
15	0xbb6ec6c0	-0.0036434382
16	0xbcb854ff	-0.022501467
17	0xbd837ff2	-0.06420888
18	0xbd77c087	-0.060486343
19	0xbbc9aaf2	-0.0061544115
20	0xbd9f01ce	-0.07764016
21	0xbd37cc32	-0.04487247
22	0xbdba27b4	-0.09089604
23	0xbd52225d	-0.051302303
24	0xbd2669ae	-0.040628128
25	0xbd43bc27	-0.047786858
26	0xbe9d3b13	-0.30709133
27	0xbbd199ab	-0.0063964925
28	0xbb5126b7	-0.0031913945
29	0xbd2d899a	-0.042367555
30	0x3e350a3c	0.17679685
31	0x3e33322a	0.17499605
32	0xbb1e06be	-0.0024112905
33	0xbde5c5fa	-0.11219402
34	0xbc7ca176	-0.015419355
35	0x3e227b86	0.15867433
36	0xbe04bcde	-0.12962672
37	0xbd0cb6d5	-0.03435405
38	0xbe00de1f	-0.12584732
39	0xbd790872	-0.06079907
40	0x3d928d48	0.071558535
41	0xbcc16331	-0.023606868
42	0x3da8c5ae	0.082408294
43	0xbd983a2d	-0.07432971
44	0x3e30d801	0.17269899
45	0xbd5d22bf	-0.053988215
46	0x3db279c8	0.08714634
47	0xbd3be3d6	-0.04587158
48	0xbd3449cd	-0.044015694
49	0xbdc137a1	-0.094344385
50	0xbca912ce	-0.02063885
51	0x3da67a2d	0.08128772
52	0x3cd5f0e2	0.026115838
53	0x3d2bfb27	0.041987564
54	0xbbae91b9	-0.00532743
55	0xbc8172c7	-0.0158018
56	0xbd060f7c	-0.03272961
57	0x3e0249d5	0.12723477
58	0x3c863f38	0.016387567
59	0x3e49639b	0.19666903
60	0x3ba9a15f	0.0051767076
61	0xbd2925f2	-0.041295953
62	0x3e04eb54	0.12980396
63	0x3c660dd6	0.014041385
64	0xbd39a28b	-0.04532103
65	0xbd3ddac7	-0.04635122
66	0x3dc147dd	0.09437535
67	0xbd7eec2f	-0.06223696
68	0x3d26cf62	0.04072512
69	0xbd0799c6	-0.033105634
70	0xbc178962	-0.009249063
71	0x3d6be9f2	0.057596155
72	0xbdc87749	-0.09788377
73	0x3d7fbac6	0.06243398
74	0xbd4aa362	-0.04947222
75	0xb90fbceb	-0.0001370792
76	0x3e2de4ed	0.1698186
77	0xbba7995c	-0.0051147174
78	0x3e195b5c	0.14976257
79	0x3d433900	0.04766178
80	0x3e40af34	0.18816835
81	0x3d240065	0.04003944
82	0x3d51eb1a	0.0512496
83	0xbe2d72c9	-0.16938318
84	0x3d1bdf21	0.03805459
85	0xbe77430a	-0.24146667
86	0xbbdb8729	-0.006699462
87	0x3d3e4f92	0.046462603
88	0xbc9c1b6c	-0.019056045
89	0x3cd581b9	0.026062833
90	0xbd8e88be	-0.06959675
91	0x3e145a8f	0.1448767
92	0x3db757d2	0.08952297
93	0xbe2b8ff3	-0.16754131
94	0xbddcf98c	-0.10789785
95	0xbb8b913d	-0.004259257
96	0x3dfa2b49	0.12215287
97	0x3c555bdf	0.013022392
98	0x3db497d9	0.08818025
99	0xbd6715af	-0.056417163
100	0x3ba8ac46	0.0051474897
101	0xbd339083	-0.04383899
102	0xbd14d8a5	-0.03633942
103	0xbcf126ce	-0.029437449
104	0x3d9b5d88	0.07586199
105	0x3c9308f2	0.017948601
106	0x3c8256c9	0.015910523
107	0x3e889a9a	0.26680452
108	0x3dad1660	0.08451533
109	0x3dd37907	0.103258185
110	0xbe890e51	-0.26768735
111	0x3e45c355	0.19312795
112	0x3e5ae5f8	0.21376789
113	0xbdce2515	-0.100656666
114	0xbd168ae0	-0.036753535
115	0xbd1c6a37	-0.038187232
116	0xbdb3a030	-0.08770788
117	0x3e0ef5ee	0.13961002
118	0xbdc66578	-0.096873224
119	0xbd6bf443	-0.057605993
120	0x3c90a564	0.01765699
121	0x3ca66056	0.020309608
122	0xbce18115	-0.027527371
123	0xbdb5231e	-0.08844589
124	0x3dbec8d9	0.093156524
125	0xbe401829	-0.18759216
126	0x3c33449e	0.010941653
127	0xbd8ee619	-0.069774814
128	0xbf35e171	-0.7104712
129	0x3d8ce45f	0.06879496
130	0x3e786782	0.24258235
131	0xbea08d49	-0.31357792
132	0x3e71e6bd	0.23623176
133	0xbea48f51	-0.32140592
134	0xbea4d5b7	-0.321943
135	0xbf27e934	-0.65590215
136	0x3f3036ab	0.68833417
137	0xbf521ea6	-0.82078016
138	0xbe670757	-0.22561394
139	0x3c845ac5	0.016156564
140	0xbe6126b8	-0.21987426
141	0xbf5c5291	-0.86063486
142	0xbe433e26	-0.19066676
143	0xbeefb53f	-0.46817967
144	0xbd44a607	-0.0480099
145	0x3f0f123d	0.55887204
146	0xbe2e1b7f	-0.17002676
147	0xbea5f02f	-0.32409808
148	0x3d50c2e4	0.050967112
149	0xbf56f7da	-0.8397194
150	0xbe4451f4	-0.19171888
151	0xbf0e9ea7	-0.55710834
152	0xbe83cb14	-0.25740874
153	0xbf158f23	-0.58421534
154	0xbf0f599d	-0.55996114
155	0xbf77b292	-0.9675685
156	0xbeb3b4a1	-0.35098746
157	0xbea2a9da	-0.3177021
158	0xbf8c34d4	-1.0953622
159	0xbe89135b	-0.2677258
160	0xbf82b292	-1.0210745
161	0xbc986508	-0.018602863
162	0x3e4da0b0	0.20080829
163	0xbdc71b4d	-0.09722004
164	0x3e3d129b	0.18464129
165	0xbea1c1f7	-0.31593296
166	0x3eb77711	0.35833028
167	0x3f007f1c	0.50193954
168	0xbf9bc9bf	-1.2170943
169	0xbde266d6	-0.11054771
170	0xbf016d63	-0.50557536
171	0x3ea6deac	0.3259176
172	0xbed647bd	-0.41851607
173	0xbeb3b646	-0.351
174	0xbe55da62	-0.20884088
175	0xbe21c863	-0.15799098
176	0x3ebfbde5	0.37449566
177	0x3e0e9ff9	0.13928212
178	0xbe7a3932	-0.24435881
179	0xbc3eed2a	-0.011653224
180	0xbe95c8b3	-0.29254684
181	0xbd235e28	-0.039884716
182	0xbe15eee0	-0.14641905
183	0xbe42e0ec	-0.19031113
184	0xbef471e9	-0.47743157
185	0xbea11cbd	-0.31467238
186	0x3eb959bb	0.3620127
187	0x3db87411	0.09006513
188	0x3de875d8	0.11350602
189	0xbe9b6f31	-0.3035827
190	0x3ef3c7ff	0.47613522
191	0x3d3a4b0e	0.045481734
192	0xbf0ebffa	-0.55761683
193	0xbf451ae6	-0.7699417
194	0x3e825e16	0.25462407
195	0xbe618184	-0.22022063
196	0xbe466a0b	-0.1937639
197	0xbf3e6870	-0.7437811
198	0xbe9a5c1c	-0.301484
199	0xbf430f28	-0.76195
200	0xbdeaef5d	-0.11471436
201	0x3e8ea84e	0.2786278
202	0xbd8d293c	-0.068926305
203	0x3e091337	0.13386236
204	0x3f53be37	0.8271212
205	0x3eb389f6	0.35066193
206	0xbea61a18	-0.32441783
207	0xbfcbe5b2	-1.5929472
208	0xbf6c1a45	-0.92227584
209	0x3e9caa83	0.3059884
210	0xbf0bd478	-0.54621077
211	0xbf4dd5f5	-0.804046
212	0xbf2e86a2	-0.68174183
213	0xbf04caa6	-0.51871717
214	0xbfa4b8c5	-1.2868887
215	0xbe6ba768	-0.23013079
216	0xbe89ad49	-0.2689002
217	0xbe83d9a5	-0.25751987
218	0x3dc5a883	0.09651282
219	0xbe3a1281	-0.18171121
220	0xbf258252	-0.6465198
221	0xbea81b45	-0.32833305
222	0x3d190bb0	0.03736466
223	0xbf2961ae	-0.6616467
224	0xbe8e5f57	-0.27807114
225	0xbf7335db	-0.9500405
226	0x3d5e133e	0.05421757
227	0xbf056cc9	-0.5211912
228	0x3f0e7eba	0.5566212
229	0xbe526587	-0.20546542
230	0x3e84ff6e	0.25976127
231	0xbdb8be1f	-0.09020638
232	0xbe146d36	-0.14494786
233	0x3e73b588	0.23799717
234	0xbe7aaec7	-0.24480735
235	0xbdcd1ad6	-0.10014884
236	0xbf001e9c	-0.50046706
237	0xbdf04a29	-0.11732895
238	0xbe5af8ef	-0.21384023
239	0x3eede704	0.46465313
240	0xbf103e59	-0.56345135
241	0xbf03739d	-0.51348287
242	0xbe7492f1	-0.23884179
243	0xbde18b71	-0.110129245
244	0xbf52fd5b	-0.8241784
245	0xbe912fa2	-0.28356653
246	0x3d0468cb	0.0323265
247	0xbf81ed93	-1.0150627
248	0xbf6e892d	-0.93178064
249	0xbefbb8f6	-0.49164551
250	0x3e82180f	0.2540898
251	0xbec5a942	-0.38605696
252	0xbea64683	-0.3247567
253	0xbf55d5f7	-0.8352961
254	0xbf1653a6	-0.5872139
255	0xbea7c392	-0.32766396

layer2.bias f4 [128]
0	0x3ccbc795	0.024875442
1	0x3f06f217	0.5271315
2	0xbe69bd14	-0.22826034
3	0xbe047ebf	-0.12938975
4	0x3e57ab9b	0.21061556
5	0x3e660c53	0.22465639
6	0xbd91aac9	-0.07112653
7	0xbd7f67a1	-0.062354688
8	0xbe1dec0c	-0.15422076
9	0x3c603d14	0.013686437
10	0xbdb99d1b	-0.090631686
11	0xbd5c20ab	-0.053742092
12	0xbe4cc5d4	-0.1999734
13	0x3d602370	0.054721296
14	0xbe4a387d	-0.19748111
15	0xbd671181	-0.056413177
16	0x3de4b94a	0.111681536
17	0xbe88eacf	-0.26741645
18	0xbd2e0f90	-0.04249531
19	0xbda041a8	-0.07825023
20	0xbcc2e293	-0.02378968
21	0x3cdfe46e	0.027330603
22	0xbd923cb1	-0.07140482
23	0xbe594aff	-0.21220015
24	0xbda7b23c	-0.081882924
25	0x3e8e9e6e	0.27855247
26	0xbdf7191b	-0.12065335
27	0x3c52d190	0.012867346
28	0x3d979d99	0.07403106
29	0x3ea3c2e1	0.31984618
30	0xbe0a8ab0	-0.13529468
31	0xbbaa75e9	-0.0052020443
32	0xbd42f79c	-0.04759942
33	0x3eb5e8f5	0.35529295
34	0xbdcc9890	-0.099900365
35	0x3c090c43	0.00836474
36	0x3e348e9e	0.17632529
37	0xbe3861b0	-0.18006015
38	0xbecf1071	-0.4044223
39	0x3cbe9b82	0.023267511
40	0xbdbf1d2f	-0.09331738
41	0xbd8afc3f	-0.067863934
42	0xbd460204	-0.048341766
43	0x3e690945	0.22757442
44	0xbdf085b1	-0.117442496
45	0x3e744f4e	0.23858377
46	0xbde9acdb	-0.11409923
47	0xbd92b725	-0.07163838
48	0x3dcce69a	0.10004921
49	0xbd0611d1	-0.032731835
50	0xbe4fdc51	-0.20298888
51	0xbe51ad85	-0.20476349
52	0x3e6b625a	0.22986737
53	0xbdae1ab2	-0.085011855
54	0xbe85b70b	-0.26116213
55	0x3c132464	0.008980844
56	0xbd2d326e	-0.04228442
57	0xbbba00c5	-0.0056763613
58	0xbe273953	-0.16330461
59	0xbecf6d06	-0.40512866
60	0xbdd64080	-0.10461521
61	0xbdc188e2	-0.094499364
62	0xbdd455fc	-0.10367963
63	0x3d1e0894	0.0385824
64	0x3e520667	0.20510255
65	0xbdf8db42	-0.12151195
66	0xbe4c8f2d	-0.19976492
67	0xbe136627	-0.14394437
68	0xbd8099bf	-0.06279325
69	0xbe7fdf45	-0.24987514
70	0xbda5c1a4	-0.08093575
71	0xbe400c08	-0.1875459
72	0xbe154035	-0.14575274
73	0xbba9ba70	-0.005179696
74	0xbe27b31c	-0.16376919
75	0x3da85770	0.082198024
76	0x3c21081f	0.009828596
77	0xbc92adc4	-0.017905124
78	0xbcda51fd	-0.026650423
79	0xbc078bec	-0.008273106
80	0xbd9e0c84	-0.07717231
81	0x3ccae5c2	0.02476776
82	0xbdda4abf	-0.10658788
83	0x3e919d7f	0.28440472
84	0x3e8774d4	0.2645632
85	0x3e63c0c6	0.22241506
86	0xbc855ca1	-0.01627952
87	0x3dc6a53d	0.096994855
88	0xbcd36cd9	-0.025808739
89	0xbde46132	-0.11151351
90	0x3d859407	0.065223746
91	0x3e9003cc	0.28127897
92	0x3e33dd3e	0.17564866
93	0xbc5ab73f	-0.013349353
94	0xbd7b0bef	-0.061290678
95	0xbd4c9f70	-0.04995674
96	0xbe3f6d16	-0.18693957
97	0xbde65d33	-0.11248245
98	0x3d05df95	0.032683928
99	0xbddfb4bb	-0.109231435
100	0xbdaa64ee	-0.08320032
101	0x3ecfa014	0.40551817
102	0xbdd4ea5e	-0.103962645
103	0xbda0fdce	-0.078609094
104	0xbd409956	-0.047021233
105	0xbd823a28	-0.06358749
106	0xbdc6f573	-0.097147845
107	0xbd546f48	-0.05186394
108	0xbdf09814	-0.117477566
109	0xbe09165d	-0.13387437
110	0xbdca75ee	-0.098857746
111	0xbd1517ea	-0.03639976
112	0xbde5ff79	-0.11230368
113	0xbc00735a	-0.007840002
114	0xbc148191	-0.009064094
115	0xbd96ea25	-0.07368878
116	0xbe8b0124	-0.27149308
117	0x3d0b399a	0.03399048
118	0xbd71bf27	-0.059020188
119	0x3e799822	0.2437444
120	0xbcaae634	-0.020861723
121	0xbdbafdf2	-0.091304675
122	0xbc020bdc	-0.007937398
123	0xbdced338	-0.100988805
124	0x3ec42fd5	0.38317743
125	0xbd96265c	-0.07331535
126	0xbd982d94	-0.07430568
127	0xbd401808	-0.046897918

layer3.weight f4 [4, 128]
0	0x3ccc2fb6	0.024925094
1	0x3d1d359a	0.038381197
2	0xbeb7d023	-0.35900983
3	0x3cc87fb1	0.02447495
4	0x3c441280	0.011967301
5	0xbd3db437	-0.046314444
6	0x3d4890ff	0.048966404
7	0xbddb2058	-0.106995285
8	0xbde63cb5	-0.11242048
9	0xbb7f0528	-0.0038912985
10	0xbc84a836	-0.01619349
11	0xbdbed66a	-0.0931824
12	0xbe075089	-0.13214315
13	0xbedb2279	-0.42799738
14	0xbe223d95	-0.15843804
15	0xbef1f9ba	-0.4726084
16	0x3de5e8c1	0.11226035
17	0xbea6b8c4	-0.3256284
18	0x3ba70c19	0.0050978777
19	0xbe2ce94d	-0.16885872
20	0xbe1ab4fa	-0.151081
21	0x3f19c223	0.60061854
22	0xbdddd50b	-0.1083165
23	0x3bfb7521	0.007673875
24	0x3d320454	0.04346116
25	0x3c0914fa	0.008366818
26	0x3d525743	0.05135275
27	0x3d3e7999	0.046502683
28	0x3de61254	0.112339646
29	0xbcb4f5c2	-0.022089843
30	0xbd94fd01	-0.07274819
31	0x39e5278d	0.0004370775
32	0x3cb6290a	0.022236366
33	0xbc3ed375	-0.011647095
34	0xbccf5f28	-0.025313929
35	0xbcce9e00	-0.025221825
36	0xbc4a71a5	-0.0123561965
37	0xbba29846	-0.004962
38	0xbf01c6e5	-0.50694114
39	0x3f271b3d	0.6527594
40	0xbc61d948	-0.013784714
41	0xbdca0b98	-0.098654926
42	0x3d0ff273	0.035143327
43	0x3d1e0a30	0.038583934
44	0xbe05205b	-0.13000624
45	0x3ef1d320	0.47231388
46	0xbdbafe21	-0.091305025
47	0xbd72f027	-0.05931106
48	0x3d1fdefd	0.039031018
49	0xbd727c8b	-0.059200805
50	0xbe0a5349	-0.13508333
51	0xbddac0be	-0.10681294
52	0x3d489bdc	0.048976764
53	0x3d362675	0.04447027
54	0xbe739365	-0.23786695
55	0xbd00cf60	-0.03144777
56	0xbda143f7	-0.078742914
57	0x38b69365	8.705891e-05
58	0xbce60ff9	-0.028083788
59	0xbf24f4e7	-0.6443619
60	0xbc213441	-0.009839118
61	0x3cf73e6b	0.03018113
62	0xbf549de3	-0.83053416
63	0x3e0c42fb	0.13697426
64	0x3ceb4e13	0.028723752
65	0x3dc2722f	0.09494435
66	0xbe46ae5f	-0.19402455
67	0xbe068a36	-0.13138661
68	0x3c853c79	0.016264187
69	0xbecb8ec8	-0.3975737
70	0xbdba1ab2	-0.09087123
71	0xbdab5b1d	-0.08366988
72	0xbd89cb13	-0.067281865
73	0xbdb7edb1	-0.08980883
74	0xbdcf1c25	-0.1011279
75	0x3a5a6798	0.0008331477
76	0x3cdab40c	0.026697181
77	0x3dbf499b	0.09340211
78	0xbc7b3083	-0.01533139
79	0x3d4d23c2	0.05008293
80	0x3a9bd063	0.0011887666
81	0x3d0f084a	0.034920014
82	0x3d485d5e	0.048917167
83	0x3ecc43e1	0.39895537
84	0x3ef14a83	0.4712716
85	0x3cb835ca	0.022486586
86	0x3d415beb	0.0472068
87	0xbe39ebec	-0.18156403
88	0xbd1f0a53	-0.038828205
89	0x3ec5a3d9	0.38601568
90	0xbea8947e	-0.3292579
91	0x3f3e3d1b	0.7431199
92	0xbd8e29ec	-0.0694159
93	0x3cf350a5	0.02970154
94	0x3c2d98d8	0.010595523
95	0xbb99cb3b	-0.0046934164
96	0xbdd1abe7	-0.10237866
97	0xbda7e72e	-0.08198391
98	0x3d7b98ee	0.061425142
99	0xbdd3cf01	-0.10342217
100	0xbd40deb8	-0.0470874
101	0x3e537c08	0.20652783
102	0xbcff12ec	-0.031136952
103	0xbbc5bd3d	-0.006034522
104	0xbd3a9ce1	-0.045559768
105	0xbd354c93	-0.04426248
106	0xbdb3679e	-0.08759998
107	0x3b914c5c	0.0044341516
108	0xbc627c8a	-0.013823638
109	0xbc1220b5	-0.008918931
110	0xbcac2765	-0.021014879
111	0x3c3e5c41	0.011618675
112	0xbe8be5e1	-0.2732382
113	0x3d36355d	0.044484485
114	0x3c78f0fd	0.015194175
115	0xbb598f77	-0.0033197084
116	0x3d526505	0.05136587
117	0xbdc7b8b5	-0.09752027
118	0xbd057a88	-0.032587558
119	0xbe2d0bf5	-0.16899092
120	0xbda0ca6c	-0.07851109
121	0xbbd00bed	-0.006349078
122	0x3d2bc97b	0.041940194
123	0xbe353c27	-0.17698728
124	0x3ebe2436	0.37137002
125	0x3e4f8f8d	0.20269604
126	0xbcf767bb	-0.03020083
127	0xbd6b98cd	-0.05751877
128	0xbcd1a594	-0.02559165
129	0xbd17670d	-0.03696351
130	0xbe8e55f6	-0.27799958
131	0x3c8d1cfc	0.017225735
132	0x3cd7ab19	0.026326703
133	0xbc791e3b	-0.015204961
134	0xbdace2e4	-0.084417135
135	0xbcd6fda9	-0.026244001
136	0xbe08faaf	-0.13376878
137	0x3c9372fe	0.017999168
138	0xbb9a6647	-0.0047118994
139	0x3d244295	0.04010256
140	0xbd5d8170	-0.05407852
141	0xbe941a37	-0.2892625
142	0xbdeed1a8	-0.116610825
143	0xbee1432a	-0.43996555
144	0xbc94f572	-0.018183444
145	0xbea018d8	-0.31268954
146	0xbccdc8e2	-0.025120202
147	0xbe6a133f	-0.22858904
148	0x3df3cc96	0.11904256
149	0xbe9a5996	-0.30146474
150	0xbe160765	-0.14651258
151	0xbd5965e0	-0.05307567
152	0xbca555ea	-0.020182569
153	0x3c87a252	0.016556893
154	0xbdad336a	-0.08457072
155	0xbc92173f	-0.01783335
156	0x3c1884a3	0.009308967
157	0xbd6e2e24	-0.058149472
158	0xbe3af8ff	-0.18259047
159	0xbb389e46	-0.002817051
160	0xbc8135ec	-0.015772782
161	0xbc2ef2d6	-0.010678014
162	0xbd44a3ae	-0.04800766
163	0x3d64334e	0.05571299
164	0xbbe44b0e	-0.006966955
165	0x3d964573	0.07337465
166	0xbee51b36	-0.44747323
167	0x3ecfa7d8	0.40557742
168	0x3cce2b7c	0.02516722
169	0xbb086c4a	-0.0020816498
170	0xbc0c5cb0	-0.00856702
171	0x3dd7819d	0.10522769
172	0xbe305fbe	-0.17224023
173	0x3e93c10d	0.28858224
174	0x3cd31840	0.0257684
175	0x3d3eb60c	0.046560332
176	0xbcc91149	-0.024544375
177	0xbe067f5f	-0.13134526
178	0xbda9f195	-0.08298031
179	0xbe4ff367	-0.20307694
180	0x3b170050	0.0023040958
181	0xbd81c0a1	-0.06335569
182	0xbe53ff13	-0.20702772
183	0xbdcf600b	-0.101257406
184	0x3d3bba66	0.04583206
185	0x3b8bfd20	0.004272118
186	0xbd8698e7	-0.065721326
187	0xbf1463bd	-0.5796469
188	0xbc7b105b	-0.015323724
189	0x3bd15218	0.00638796
190	0xbf304570	-0.68855953
191	0x3d83c8a5	0.06434754
192	0xbc815446	-0.015787255
193	0xbd91fdb8	-0.07128471
194	0xbe3e2402	-0.18568423
195	0xbde72899	-0.1128704
196	0x3cc03a72	0.023465369
197	0xbeb67f6c	-0.3564409
198	0xbc16c99a	-0.009203339
199	0x3caa3bfa	0.020780552
200	0x3d84da20	0.064869165
201	0xbb0b8f90	-0.0021295287
202	0xbd86b35d	-0.065771796
203	0x3cc32da4	0.023825474
204	0x3d26178e	0.040549807
205	0xbe249146	-0.16071042
206	0x3c191e56	0.009345612
207	0x3e1266cf	0.14297031
208	0xbd0d9e3b	-0.03457473
209	0x3d1a96ce	0.037741475
210	0xbbe1def0	-0.0068930313
211	0x3ead9ae5	0.33907238
212	0x3ea34b27	0.31893274
213	0x3b79c36c	0.0038110865
214	0xbdfa2834	-0.122146994
215	0xbd25bb91	-0.04046208
216	0xbc8ad861	-0.01694888
217	0x3e266b76	0.1625193
218	0xbe909714	-0.28240263
219	0x3e98881f	0.29791352
220	0x3db53973	0.08848848
221	0xbdfd4940	-0.12367487
222	0xbe038914	-0.1284526
223	0xbac7847e	-0.0015221981
224	0xbe1295ec	-0.14315003
225	0xbd74d898	-0.059776872
226	0xbcbaa3a0	-0.0227831
227	0x3c951d8e	0.01820257
228	0xbe0e37d2	-0.13888481
229	0x3d32fe3c	0.043699488
230	0xbc622467	-0.013802624
231	0xbdb4e16d	-0.08832059
232	0xbcea5b8d	-0.028608108
233	0x3d08c720	0.033393025
234	0x3e132af6	0.14371857
235	0xbd32603f	-0.04354882
236	0x3c5d472d	0.013505739
237	0xbdf74c7e	-0.120751366
238	0x3d28d1d3	0.04121573
239	0x3dc4ba08	0.09605795
240	0xbe61a4a1	-0.22035457
241	0xbd6bf25c	-0.05760418
242	0x3d0b93ce	0.034076504
243	0xbd4baf59	-0.04972777
244	0xbdd8fd51	-0.10595191
245	0x3b8e544e	0.004343546
246	0xbc1596dc	-0.009130206
247	0x3ccea47c	0.025224917
248	0x3daec0fc	0.085329026
249	0xbe39c12b	-0.18140094
250	0xbdaa3a35	-0.08311883
251	0xbdce5670	-0.100750804
252	0x3e94e032	0.29077297
253	0x3dbd478f	0.09242164
254	0xbdb82ea2	-0.089932695
255	0xbd71dcde	-0.059048526

layer3.bias f4 [4]
0	0x3c8ee735	0.017444232
1	0xbcf2a52b	-0.029619774
2	0xbe795f01	-0.24352647
3	0x3efa4c70	0.48886442
