base_models/checkpoint_lenet5.pth (torch, 249863 bytes, 10 tensors)

conv1.weight f4 [6, 1, 5, 5]
-0.08130383 -0.015257927 0.095216796 0.013525802 -0.058812577 -0.033313677 -0.13425836 0.28675058
0.30343914 -0.18353969 -0.09862642 0.30446738 0.41725338 0.40559715 0.08927626 0.04590243
0.022669341 0.35456747 0.3183782 0.4291203 -0.16687918 0.25533912 0.25314462 0.49056554
0.3282149 -0.05952225 -0.10475171 -0.31023628 0.021711977 0.075765505 -0.3507312 0.013082608
-0.080569915 0.07451431 0.27800664 -0.2290164 -0.286185 -0.063904256 0.15476876 0.455856
0.23184378 0.2507115 0.4470008 0.19451727 0.41072527 0.2738226 0.32993272 0.30407542
0.18598706 -0.012861657 0.067112654 0.21617539 0.035305373 0.09723711 -0.08309091 0.37202698
0.6708777 0.5578218 0.49232665 0.31034896 0.529119 0.6665067 1.0147436 0.6702176
0.356341 0.16749945 0.56219727 0.6195795 0.5054558 0.09768459 0.045392666 -0.08566225
0.11466306 0.1922759 -0.277061 0.055754595 -0.013897603 -0.18272738 0.032026403 0.079950005
0.126539 -0.042117167 -0.0052936454 0.06998674 -0.044602785 -0.04223193 0.11225198 0.10159158
-0.15141004 -0.15806071 0.10510109 -0.09758911 0.2085705 -0.08642103 -0.15377146 0.009907686
0.19796753 -0.17504612 -0.17373681 -0.15962714 0.00415175 -0.2523466 -0.082774006 -0.14560704
0.25282982 0.11173443 0.15691079 -0.09043998 0.1672243 0.31317258 0.28079113 -0.038850754
0.2379961 0.47396564 0.20918867 0.14997001 0.23578314 0.374902 0.34134975 0.4330961
-0.04000313 -0.05318177 0.13369769 0.18862215 0.35694858 0.062423702 -0.030326746 0.11117321
-0.00019714168 -0.07289051 -0.14062405 -0.11895243 -0.1321383 -0.18457778 0.010208346 0.075251654
0.063569024 -0.059904654 -0.20687912 -0.16993502 0.049957305 -0.20486416 0.08208333 0.031420536
0.13529691 -0.07672452 -0.14338152 0.015127506 0.13563326 0.2754575
00000000: 9f82 a6bd 62fc 79bc 0601 c33d 539b 5d3c
00000010: 75e5 70bd ec73 08bd 067b 09be f9d0 923e
00000020: 605c 9b3e d4f1 3bbe a6fc c9bd 26e3 9b3e
00000030: 3ca2 d53e 6eaa cf3e 79d6 b63d 3004 3c3d
00000040: 0eb5 b93c de89 b53e 7802 a33e a8b5 db3e
00000050: 60e2 2abe cfbb 823e 2c9c 813e 682b fb3e
00000060: c90b a83e 9acd 73bd 1188 d6bd 4ad7 9ebe
00000070: 51dd b13c f22a 9b3d 0a93 b3be 6f58 563c
00000080: d701 a5bd f59a 983d e356 8e3e 4683 6abe
00000090: d786 92be 3ce0 82bd b47b 1e3e f565 e93e
000000a0: 7568 6d3e 425d 803e 4add e43e 892f 473e
000000b0: 954a d23e 7a32 8c3e f1ec a83e c6af 9b3e
000000c0: 6473 3e3e b3b9 52bc 5c72 893d 155d 5d3e
000000d0: 5e9c 103d 4024 c73d 912b aabd 527a be3e
000000e0: a4be 2b3f 69cd 0e3f 3d12 fc3e 0fe6 9e3e
000000f0: 5874 073f 2fa0 2a3f 1ee3 813f 6193 2b3f
00000100: 5472 b63e fa84 2b3e 29ec 0f3f c39c 1e3f
00000110: 8d65 013f dc0e c83d a9ed 393d b16f afbd
00000120: 77d4 ea3d f9e3 443e f0da 8dbe ee5e 643d
00000130: c6b2 63bc e31c 3bbe 1e2e 033d d4bc a33d
00000140: 7193 013e 0d83 2cbd 5176 adbb 3555 8f3d
00000150: 69b1 36bd 63fb 2cbd 5ee4 e53d 3f0f d03d
00000160: 3c0b 1bbe abda 21be 3e3f d73d cddc c7bd
00000170: 8193 553e 82fd b0bd 4476 1dbe d953 223c
00000180: 00b8 4a3e 4a3f 33be 10e8 31be 4c75 23be
00000190: 670b 883b 9333 81be 6b85 a9bd 031a 15be
000001a0: e972 813e 05d5 e43d 39ad 203e 9938 b9bd
000001b0: d93c 2b3e 2858 a03e dbc3 8f3e f821 1fbd
000001c0: 40b5 733e a0ab f23e 8e35 563e bd91 193e
000001d0: 2371 713e 28f3 bf3e 65c5 ae3e c6be dd3e
000001e0: 52da 23bd 21d5 59bd 0ce8 083e 2a26 413e
000001f0: f7c1 b63e ffaf 7f3d cc6f f8bc c8ae e33d
00000200: d1b7 4eb9 9f47 95bd c0ff 0fbe 559d f3bd
00000210: 434f 07be f501 3dbe e840 273c 8a1d 9a3d
00000220: 7a30 823d 955e 75bd 1fd8 53be 7203 2ebe
00000230: 08a0 4c3d e9c7 51be 4e1b a83d d2b2 003d
00000240: 468b 0a3e bf21 9dbd 9bd2 12be 5cd9 773c
00000250: 72e3 0a3e c408 8d3e

conv1.bias f4 [6]
5.5430864e-05 0.021276202 0.00015235836 -0.08007621 -0.000121057325 -0.00780928
00000000: 707e 6838 6e4b ae3c 63c2 1f39 fffe a3bd
00000010: 28e0 fdb8 fde4 ffbb

conv2.weight f4 [16, 6, 5, 5]
-0.03361992 0.048126217 0.058214612 -0.032731105 0.042105485 0.029460067 -0.07868418 0.061626527
-0.012583592 0.043089278 0.0042624613 -0.07077071 -0.03126698 0.010233661 -0.095415555 0.065925345
0.023094675 -0.059794977 -0.051611144 0.032590028 0.03374953 -0.011231566 0.0810549 0.048916712
-0.035681948 0.05717455 0.022587258 0.07368402 -0.057253428 0.053032428 -0.083969615 -0.046743847
-0.025767336 -0.06614499 0.030092489 -0.020762824 -0.09463923 0.001564124 -0.07552723 0.007761128
0.004380241 -0.089181766 -0.08550632 0.023126306 0.09895144 0.0800932 0.0359541 0.01265449
0.011091311 0.09492946 -0.0973283 -0.06183202 -0.030390242 0.018044231 -0.017448002 -0.089271344
-0.04612494 0.097898185 0.14646293 0.11242415 -0.08549075 -0.05568138 -0.08502386 -0.103142954
-0.06812987 -0.10760692 -0.076764196 -0.19284497 -0.10792333 -0.058559597 0.034319583 0.071881786
0.084668115 0.09546313 0.038509294 -0.024809057 -0.012833476 0.043379717 -0.01561814 0.052407786
-0.0723366 0.06097629 0.0013346412 -0.0115207825 -0.042195372 -0.046430513 0.033599347 0.021083565
-0.047648165 0.075283565 0.043222565 -0.02978074 0.067162074 -0.06841286 -0.056516346 0.032003935
0.0052114623 0.033729766 0.052769266 -0.06794395 -0.069144644 -0.06315068 0.005105929 0.092002794
-0.014010183 -0.025393533 -0.051625304 -0.02848198 0.10206649 -0.035133928 -0.07313642 0.0041476623
-0.03975691 -0.015146966 -0.05433261 -0.055102363 -0.09186751 -0.09005585 0.023573993 -0.020413999
-0.061615437 -0.006843461 0.0741305 0.11981262 0.055175498 0.08045734 -0.055632904 0.05073148
-0.018379502 0.057590596 -0.023015931 -0.04248962 -0.04354288 -0.08156265 -0.07845539 -0.038780566
0.008101649 -0.009337051 -0.077618 0.057025176 0.051150765 -0.014000286 0.014546972 0.09137663
0.06710359 -0.053964805 0.032861814 -0.0242813 0.05237125 -0.06327944 -0.07107798 0.017910568
0.060681134 0.021757547 -0.03727248 -0.006346093 -0.013439576 0.19135287 0.095719606 -0.055013042
-0.17954537 0.10241759 0.26350224 -0.018367846 -0.22163244 -0.18023272 0.06080901 0.2610643
-0.012706809 -0.09394996 -0.04306786 0.054128308 0.14693075 -0.0047626835 -0.153191 -0.0057481606
0.054998852 0.004311304 0.07692129 -0.10006706 0.070219815 -0.101159655 0.04929343 0.016317537
-0.13971967 -0.17483525 0.06823562 0.07000404 -0.042833857 -0.25946414 -0.108365 0.14865156
0.09667532 -0.18366244 -0.18381526 0.050685048 0.19672714 -0.057388064 -0.111130014 -0.07856571
-0.14215335 -0.11217409 -0.20687972 -0.0075893644 -0.23675823 0.02783281 -0.12783419 0.12107854
0.25009125 -0.02271666 -0.14940414 -0.18279095 0.24577673 0.17685829 -0.15363418 -0.38349593
-0.12490008 0.29392663 0.16854659 -0.27425197 -0.35060355 0.001205773 0.30719098 0.09624577
-0.31347638 -0.05697518 0.03264072 -0.04348463 0.019268243 0.027637705 0.032958485 0.02679252
-0.059964236 0.08066762 -0.04033296 -0.020579552 0.055041224 0.072861336 -0.019522237 0.030206582
0.0392777 -0.056373257 -0.03048339 0.02070247 0.001522719 -0.0013058961 -0.041591827 0.017218875
-0.043328088 0.06901579 -0.01729937 -0.02015049 0.087319866 0.009014047 -0.024289817 0.024709774
00000000: 0bb5 09bd ff1f 453d 7272 6e3d 0d11 06bd
00000010: cd76 2c3d 3d56 f13c 2c25 a1bd 196c 7c3d
00000020: 692b 4ebc 627e 303d 1eac 8b3b 3cf0 90bd
00000030: ce11 00bd 16ab 273c 3b69 c3bd de03 873d
00000040: 0b31 bd3c 94eb 74bd 3566 53bd 1f7d 053d
00000050: f23c 0a3d 9a04 38bc 1d00 a63d e45c 483d
00000060: 3c27 12bd dc2f 6a3d ea08 b93c a6e7 963d
00000070: 9282 6abd 8838 593d 43f8 abbd 7a76 3fbd
00000080: 0516 d3bc 0677 87bd 8684 f63c cc16 aabc
00000090: 36d2 c1bd 4b03 cd3a 05ae 9abd 0f51 fe3b
000000a0: 2088 8f3b eea4 b6bd f01d afbd 6173 bd3c
000000b0: 0da7 ca3d e707 a43d 9b44 133d c754 4f3c
000000c0: 55b8 353c 606a c23d 0f54 c7bd 9243 7dbd
000000d0: f5f4 f8bc 7fd1 933c 1def 8ebc e5d3 b6bd
000000e0: 81ed 3cbd d87e c83d 61fa 153e a23e e63d
000000f0: c615 afbd 2912 64bd fd20 aebd 9d3c d3bd
00000100: ac87 8bbd 0461 dcbd 8c36 9dbd 2779 45be
00000110: e806 ddbd 30dc 6fbd b192 0c3d c236 933d
00000120: 7a66 ad3d 2c82 c33d ecbb 1d3d 5d3c cbbc
00000130: 8043 52bc eeae 313d 3ae3 7fbc 8ca9 563d
00000140: 3625 94bd 46c2 793d 21ef ae3a aac1 3cbc
00000150: 0ed5 2cbd ec2d 3ebd 789f 093d 71b7 ac3c
00000160: b92a 43bd 452e 9a3d 250a 313d bdf6 f3bc
00000170: 458c 893d 0b1c 8cbd af7d 67bd 8f16 033d
00000180: eac4 aa3b 3928 0a3d 9624 583d 3326 8bbd
00000190: b59b 8dbd 2555 81bd a34f a73b f66b bc3d
000001a0: f78a 65bc 1906 d0bc 0e75 53bd 0b53 e9bc
000001b0: 3c08 d13d 98e8 0fbd 8cc8 95bd 1de9 873b
000001c0: 24d8 22bd fb2a 78bc df8b 5ebd 04b3 61bd
000001d0: 0825 bcbd 346f b8bd 3f1e c13c 423b a7bc
000001e0: 7860 7cbd 1d3f e0bb bbd1 973d 5260 f53d
000001f0: b4ff 613d d1c6 a43d 54df 63bd d0cb 4f3d
00000200: 9c90 96bc 1ee4 6b3d e88b bcbc 9909 2ebd
00000210: 055a 32bd 520a a7bd 38ad a0bd 5fd8 1ebd
00000220: c7bc 043c 6efa 18bc 30f6 9ebd 3b93 693d
00000230: 7783 513d 7561 65bc 6c56 6e3c ac23 bb3d
00000240: 9b6d 893d 330a 5dbd 1c9a 063d 94e9 c6bc
00000250: 3c83 563d a798 81bd 5591 91bd 2fb9 923c
00000260: c88c 783d e23c b23c 07ab 18bd e3f2 cfbb
00000270: ab31 5cbc 02f2 433e a408 c43d 5b55 61bd
00000280: beda 37be 50c0 d13d c4e9 863e 2a78 96bc
00000290: 9df3 62be ed8e 38be de12 793d 38aa 853e
000002a0: 3830 50bc d668 c0bd ed67 30bd a5b5 5d3d
000002b0: 0475 163e 4910 9cbb 1ade 1cbe 115b bcbb
000002c0: 7a46 613d d745 8d3b e988 9d3d f5ef ccbd
000002d0: 68cf 8f3d cb2c cfbd e8e7 493d 5bac 853c
000002e0: ac12 0fbe 0308 33be 1ebf 8b3d 475e 8f3d
000002f0: 8e72 2fbd 7cd8 84be 78ee ddbd 1d38 183e
00000300: b6fd c53d 0212 3cbe 113a 3cbe 209b 4f3d
00000310: d772 493e bf0f 6bbd 2298 e3bd 0fe7 a0bd
00000320: a690 11be 88bb e5bd 47d8 53be 34b0 f8bb
00000330: c070 72be a201 e43c f7e6 02be 07f8 f73d
00000340: f60b 803e 4a18 babc 66fd 18be 8d2d 3bbe
00000350: e5ac 7b3e 571a 353e 4752 1dbe 9459 c4be
00000360: 9dcb ffbd 8d7d 963e 7a97 2c3e c16a 8cbe
00000370: 4f82 b3be 070b 9e3a 2348 9d3e 811c c53d
00000380: fa7f a0be ce5e 69bd 47b2 053d f01c 32bd
00000390: 6fd8 9d3c 7868 e23c 7aff 063d fd7b db3c
000003a0: 0f9d 75bd 1135 a53d 2d34 25bd 7396 a8bc
000003b0: e872 613d 5338 953d 19ed 9fbc cb73 f73c
000003c0: a7e1 203d a5e7 66bd 4db8 f9bc 3a98 a93c
000003d0: f995 c73a 9a2a abba 315c 2abd 990e 8d3c
000003e0: cb78 31bd 2758 8d3d 69b7 8dbc a412 a5bc
000003f0: c2d4 b23d a7af 133c 70fb c6bc 276c ca3c

conv2.bias f4 [16]
-0.051975135 -0.09316734 0.014172627 -0.023715608 0.006422844 -0.032506593 0.01474035 -0.116042376
0.044898998 -0.0342179 0.07618795 0.0059793433 -0.006422089 -0.099147886 -0.022614473 -0.041600753
00000000: e1e3 54bd 85ce bebd 4e34 683c 3c47 c2bc
00000010: b876 d23b a225 05bd 8281 713c a0a7 edbd
00000020: 03e8 373d 1228 0cbd 6e08 9c3d 5eee c33b
00000030: 6370 d2bb 0c0e cbbd fd41 b9bc 8d65 2abd

conv3.weight f4 [120, 16, 5, 5]
0.0044925585 -0.020639483 0.0042446717 0.047252633 -0.0032999874 0.0039593447 0.023514295 -0.013969179
-0.027589727 0.0023013484 0.04545843 0.04588416 0.030535012 0.026149223 0.04562839 0.032508083
-0.009945668 0.025167944 0.016928522 -0.0018992126 0.0068510505 0.025442574 0.04597576 -0.042129096
-0.044105705 0.03731873 0.0563763 -0.026120288 -0.021301413 -0.06015209 0.027834972 0.02564203
-0.022142027 -0.020308776 -0.024090437 -0.014672206 -0.0075993757 -0.053841736 -0.0070508174 -0.040417977
0.025974015 0.03561716 -0.047179446 -0.0034637037 3.3152784e-05 -0.01618217 -0.029132435 -0.023710687
-0.052496184 0.007921055 0.045302253 -0.026800096 0.032571994 -0.01951586 0.045745935 -0.02942975
-0.007381529 -0.040755656 -0.033672784 0.02752581 -0.011057249 -0.04443512 -0.0029851887 0.035175435
-0.02721123 -0.0014332975 -0.048726812 -0.036655366 -0.008551296 0.044085406 -0.010917189 -0.013003917
0.011064031 -0.04010102 0.01741038 -0.048053753 -0.014008051 0.02112161 0.03764637 -0.015007035
-0.028357338 -0.015857639 0.018335942 -0.047785506 -0.011858818 0.03244116 -0.0098189125 0.038758885
-0.029398667 -0.048499666 0.043629296 -0.021949181 0.008796765 0.028230375 -0.035985135 -0.017645441
0.02802782 -0.05219017 -0.04456947 0.024800606 0.047415335 0.044400133 -0.04126754 0.032164592
0.019330978 -0.015639054 -0.011815707 0.042805303 -0.041073624 -0.025349582 0.04190788 -0.03911103
0.007565237 0.03945351 0.01430456 0.0049587507 0.055733114 0.05396537 0.003771458 0.0032762764
-0.023115026 0.021763563 0.04881944 -0.044483818 -0.032233626 -0.0063932403 0.0065027014 -0.034164622
0.011175653 0.012945505 0.034408037 0.0059028724 0.046407096 -0.024067666 -0.044956997 -0.008200693
0.041681856 0.04988902 0.030616872 0.03420851 -0.036327083 0.0065342193 0.0008022502 0.04370337
-0.012354024 -0.036799356 -0.021440543 0.020255521 0.047380656 0.011483144 -0.040097553 0.046447955
0.04679398 -0.035706483 0.0069394386 0.03802725 -0.04015004 0.040350605 -0.027734121 0.039105244
-0.018471932 -0.03972214 0.05664949 0.0065049436 0.02774938 -0.03964197 0.014479186 0.018106213
-0.028512755 -0.0075979913 -0.01812347 0.041907422 -0.045181707 0.0026075838 -0.01295944 0.0008215058
-0.029482398 0.035581887 -0.0036563624 0.014912112 -0.034134172 0.016321592 0.010075703 -0.013193945
-0.031761404 0.04704307 0.03391015 -0.057244744 0.060129084 -0.019790461 0.03590921 -0.025780719
-0.010851131 -0.037358727 0.059469543 0.008653263 0.042990256 -0.036983725 0.008119024 -0.02204872
-0.0069812587 -0.019271798 -0.042091146 -0.032585 -0.045931384 0.038826328 -0.042895496 -0.042665627
-0.028040905 0.01061233 -0.020876378 0.039589524 -0.040089812 -0.016785558 0.04018885 0.011083876
0.0061685205 -0.037765574 0.018434731 0.017747637 -0.01942404 -0.030287039 0.015694726 -0.03397231
0.016822567 -0.035690296 0.015757145 0.03646842 0.014290745 -0.04112353 -0.0043805824 -0.011383578
-0.04217735 -0.033543 0.029801127 -0.04238701 0.027119556 -0.021608323 0.017517062 0.019079426
0.050208293 0.046550673 0.0110793635 0.018584162 -0.028296163 -0.0089367535 -0.0018375744 0.002950736
-0.0013161597 -0.01245736 0.048280332 0.045365453 0.04253108 0.01085483 0.04666682 0.001700759
00000000: 5036 933b 2214 a9bc e316 8b3b fa8b 413d
00000010: 9a44 58bb 64bd 813b 0da1 c03c fcde 64bc
00000020: da03 e2bc 38d2 163b 9e32 3a3d 07f1 3b3d
00000030: 9024 fa3c e536 d63c d6e4 3a3d 3227 053d
00000040: 28f3 22bc 012d ce3c afad 8a3c 00ef f8ba
00000050: c77e e03b f26c d03c 1451 3c3d 8f8f 2cbd
00000060: 2fa8 34bd 86db 183d d6ea 663d 37fa d5bc
00000070: 4d80 aebc 0a62 76bd 2b06 e43c 3c0f d23c
00000080: 3263 b5bc 975e a6bc 4f59 c5bc b163 70bc
00000090: 2f04 f9bb 2789 5cbd 8b0a e7bb 528d 25bd
000000a0: 75c7 d43c 4de3 113d 3c3f 41bd 4eff 62bb
000000b0: 880d 0b38 7890 84bc 25a7 eebc ea3c c2bc
000000c0: 3d06 57bd 50c7 013c db8e 393d e08b dbbc
000000d0: 366a 053d badf 9fbc 1760 3b3d a916 f1bc
000000e0: c1e0 f1bb 67ef 26bd 79ec 09bd cf7d e13c
000000f0: 7729 35bc 9a01 36bd 28a3 43bb 1e14 103d
00000100: 16ea debc 7cdd bbba c495 47bd f023 16bd
00000110: bc1a 0cbc e692 343d 02de 32bc 620e 55bc
00000120: e945 353c f840 24bd 37a0 8e3c 03d4 44bd
00000130: 0682 65bc 3a07 ad3c 1433 1a3d 11e0 75bc
00000140: a64d e8bc e1e7 81bc 4235 963c bcba 43bd
00000150: 7d4b 42bc 06e1 043d 81df 20bc a3c1 1e3d
00000160: 79d5 f0bc 96a7 46bd a2b4 323d c5ce b3bc
00000170: 4e20 103c 6343 e73c 2665 13bd 2c8d 90bc
00000180: 999a e53c 5cc5 55bd 7a8e 36bd a42a cb3c
00000190: 9536 423d eadc 353d 2708 29bd 05bf 033d
000001a0: 005c 9e3c 791d 80bc ab96 41bc 9d54 2f3d
000001b0: d13c 28bd eda9 cfbc 99a7 2b3d e332 20bd
000001c0: cfe5 f73b 019a 213d ac5d 6a3c 047d a23b
000001d0: 6848 643d cb0a 5d3d 912a 773b ccb6 563b
000001e0: b95b bdbc 8049 b23c e5f6 473d aa34 36bd
000001f0: 6807 04bd 637e d1bb 9d14 d53b 34f0 0bbd
00000200: 161a 373c 6219 543c 71ef 0c3d e26c c13b
00000210: 5e15 3e3d 8e29 c5bc d424 38bd 335c 06bc
00000220: 98ba 2a3d 6e58 4c3d 3cd0 fa3c 391e 0c3d
00000230: b5cb 14bd 011d d63b 194e 523a 4e02 333d
00000240: 8868 4abc ecba 16bd 14a4 afbc e8ee a53c
00000250: 3812 423d cc23 3c3c 553d 24bd 3640 3e3d
00000260: 0bab 3f3d f640 12bd 3b64 e33b 76c2 1b3d
00000270: 5e74 24bd ad46 253d ab32 e3bc d22c 203d
00000280: 7352 97bc afb3 22bd 4c09 683d 6c27 d53b
00000290: ab52 e33c 9e5f 22bd 1c3a 6d3c 7b53 943c
000002a0: 9593 e9bc 92f8 f8bb ac77 94bc 1ea7 2b3d
000002b0: 7410 39bd ffe3 2a3b d553 54bc 525a 573a
000002c0: 1285 f1bc 50be 113d 959f 6fbb ee51 743c
000002d0: 46d0 0bbd dcb4 853c 9014 253c 6b2b 58bc
000002e0: 3f18 02bd 3cb0 403d 5fe5 0a3d 7779 6abd
000002f0: ea49 763d 9b1f a2bc 8915 133d 1632 d3bc
00000300: f1c8 31bc 7705 19bd 5696 733d 6ac6 0d3c
00000310: 8d16 303d 3f7c 17bd a805 053c 849f b4bc
00000320: 0bc3 e4bb e4df 9dbc c467 2cbd d977 05bd
00000330: 8c22 3cbd 5b08 1f3d 30b3 2fbd 27c2 2ebd
00000340: 0ab6 e5bc 57df 2d3c f004 abbc a028 223d
00000350: 3735 24bd de81 89bc 109d 243d 2599 353c
00000360: 4d21 ca3b 13b0 1abd 6f04 973c 7e63 913c
00000370: 2a1f 9fbc 861c f8bc 3a92 803c 8d26 0bbd
00000380: 7bcf 893c fd2f 12bd 2115 813c e95f 153d
00000390: bb23 6a3c 2671 28bd fd8a 8fbb 3082 3abc
000003a0: 28c2 2cbd 6364 09bd 7e21 f43c 009e 2dbd
000003b0: d529 de3c f003 b1bc f17f 8f3c 754c 9c3c
000003c0: 36a7 4d3d ebab 3e3d 3886 353c d03d 983c
000003d0: 5bcd e7bc 766b 12bc c4da f0ba 2361 413b
000003e0: fe82 acba f419 4cbc 99c1 453d 20d1 393d
000003f0: 1235 2e3d 75d8 313c b525 3f3d 01ec de3a

conv3.bias f4 [120]
-0.001998965 -0.025437253 0.03487424 -0.027462099 0.057452682 -0.027562823 -0.02927006 0.04627733
-0.016902676 -0.041314363 0.030733341 0.0366751 0.04860548 0.04369323 0.048135392 -0.030734537
0.009009909 0.00016195509 -0.008059281 0.019864311 -0.050046913 -0.033533543 -0.01649007 -0.0075032217
0.014493901 -0.0018573153 0.026039427 0.01578713 0.020647375 -0.031489767 0.015188493 0.033985123
0.037692048 0.013162453 -0.017030533 0.019184774 -0.02883772 0.03628251 -0.013780571 0.019556478
-0.022901453 0.032884043 -0.013260625 0.018932384 -0.045005497 0.0094252145 -0.033693608 -0.014576488
0.045597717 0.024559477 -0.00789958 0.015394799 0.050991233 -0.024555253 -0.036192827 -0.026874198
0.02729735 -0.027954947 -0.011829579 0.025707265 0.025995463 -0.00020362265 -0.0010614372 0.033690576
-0.045696177 -0.026042636 0.012595326 0.010664585 0.023368387 -0.04034591 -0.038031567 0.0034022913
-0.029473476 0.03622595 -0.021622691 0.04153127 -0.025753934 0.013314171 0.022162465 0.040069442
0.005460202 0.0041985274 0.035771005 -0.042147096 0.010065292 -0.039619844 0.02779968 0.012210008
-0.011500507 -0.04698507 -0.012113094 -0.04443618 0.036888056 -0.01151977 0.021432513 -0.0038082544
0.045297284 -0.04347295 0.032602772 0.0015752376 -0.04462333 -0.0014875397 -0.005181815 -0.014066926
-0.011769321 0.007110291 -0.02971519 -0.0008041039 -0.008802602 0.030683631 0.02650477 0.007209209
-0.015682176 -0.032463487 0.022028916 0.036226094 0.07386762 0.0037264181 0.036080692 -0.055640128
00000000: 1101 03bb c961 d0bc 4bd8 0e3d 32f8 e0bc
00000010: 8153 6b3d 6ecb e1bc c4c7 efbc 4c8d 3d3d
00000020: 7b77 8abc 4039 29bd 7dc4 fb3c a138 163d
00000030: 8a16 473d acf7 323d 9e29 453d ffc6 fbbc
00000040: 4c9e 133c 7dd2 2939 130b 04bc 7bba a23c
00000050: fefd 4cbd 785a 09bd 2f16 87bc 96dd f5bb
00000060: d477 6d3c 2971 f3ba a350 d53c 0354 813c
00000070: af24 a93c 6afb 00bd 28d9 783c fc33 0b3d
00000080: fa62 1a3d 54a7 573c 9e83 8bbc 6329 9d3c
00000090: 153d ecbc f89c 143d e7c7 61bc e834 a03c
000000a0: d49b bbbc 6bb1 063d 1843 59bc 1618 9b3c
000000b0: af57 38bd 376c 1a3c 4f02 0abd 39d2 6ebc
000000c0: acc4 3a3d f530 c93c 3d6d 01bc 783a 7c3c
000000d0: 2fdc 503d 1928 c9bc ee3e 14bd 4727 dcbc
000000e0: b19e df3c c601 e5bc dad0 41bc 0b98 d23c
000000f0: 70f4 d43c 8a83 55b9 ec1f 8bba 21ff 093d
00000100: ea2b 3bbd 5e57 d5bc a05c 4e3c 83ba 2e3c
00000110: 0f6f bf3c c141 25bd fdc6 1bbd faf8 5e3b
00000120: 5c72 f1bc a961 143d 1222 b1bc b11c 2a3d
00000130: eaf9 d2bc ae23 5a3c 0f8e b53c db1f 243d
00000140: 7feb b23b cd93 893b 9e84 123d 6fa2 2cbd
00000150: e5e8 243c 6b48 22bd 28bc e33c 7c0c 483c
00000160: 9f6c 3cbc 6b73 40bd 0076 46bc b602 36bd
00000170: ee17 173d 6bbd 3cbc 3d93 af3c e893 79bb
00000180: a589 393d b110 32bd 7c8a 053d 3478 ce3a
00000190: f4c6 36bd 8df9 c2ba 37cc a9bb f778 66bc
000001a0: 1cd4 40bc 72fd e83b 456d f3bc 80ca 52ba
000001b0: ca38 10bc 3d5c fb3c 8820 d93c 3a3b ec3b
000001c0: e877 80bc 6ff8 04bd fc75 b43c d061 143d
000001d0: e847 973d ec36 743b 59c9 133d e7e6 63bd

fc1.weight f4 [84, 120]
-0.043629974 0.0031558897 0.073986456 0.013445505 -0.057505168 -0.022388019 0.08548441 0.0019182856
0.012764264 0.046993054 -0.08226641 -0.082309276 -0.028285695 0.067266144 0.03751044 0.010053405
0.036411837 -0.11676264 0.044733394 -0.056909986 -0.0967698 0.07355126 0.041063182 -0.0024213595
0.006376799 0.041276146 0.029895648 0.044067618 0.026147641 -0.016227096 -0.026656795 0.050087746
-0.013132035 -0.056516454 -0.023713034 -0.03269958 0.014463874 -0.027226621 0.05839105 0.056202546
-0.10271472 -0.059945554 -0.08912976 -0.12767322 0.066681534 0.07578202 0.031601463 -0.018822182
-0.008009056 -0.058572415 -0.023797024 -0.02900302 0.09618001 0.038397692 -0.0037683118 0.086091176
-0.0077758725 -0.0937561 0.05710809 -0.08800711 -0.045942117 -0.03418461 -0.0898914 0.034107037
-0.040361203 0.015633047 0.028902309 0.08993389 -0.0017415967 0.019418215 -0.041710112 -0.022315891
-0.07136561 -0.036738202 -0.029200936 -0.06121619 -0.019723887 -0.12160469 -0.08086368 0.1356461
0.14660949 -0.037705638 -0.012124115 -0.05446293 0.07316607 0.014295489 -0.017473867 0.019654196
0.085987225 -0.031954873 -0.06566627 -0.03354845 -0.031782527 0.026092328 -0.035756685 -0.012974614
-0.029921921 -0.140203 -0.033522286 -0.030412447 0.037152953 -0.008430596 -0.015994236 -0.099822305
0.07846892 -0.021392042 0.07350167 0.07291606 0.041188125 0.054361492 0.056254923 0.04091762
0.04995883 -0.06659624 -0.04801479 -0.08744213 0.13009952 -0.012068233 0.029516468 0.028944392
-0.09723526 -0.043273874 -0.11048688 0.0335976 -0.06522846 -0.0024312136 -0.03708468 -0.010541111
-0.06442603 0.027230052 -0.049662504 0.075315945 -0.005573744 0.0011516195 0.026972674 0.06410334
0.076723576 0.010573943 -0.011078649 -0.044204056 0.012844091 0.08000904 0.02567786 0.07805687
0.09788302 -0.089311294 -0.021542897 0.075852506 -0.037388947 -0.051360685 -0.10022766 -0.05236058
0.010205012 -0.07039852 -0.05072209 0.08857047 -0.053546935 -0.08077049 -0.056068305 0.020655453
-0.092920125 0.07111458 0.052367453 0.035312936 -0.05602573 -0.066903934 -0.06955683 0.036467846
-0.06251173 -0.0018098379 0.01975112 0.07109352 0.025026314 -0.06325527 0.05737924 -0.02414931
0.04955089 0.020579234 0.03702082 -0.04693683 0.09736295 -0.028116029 0.06419121 -0.031438626
-0.048077844 0.0044097025 -0.07455651 0.032499935 0.05841724 0.08574603 -0.04798268 0.02994666
0.02587248 0.010685198 0.077898815 0.06117787 0.02025382 0.04716184 -0.07409636 -0.12560077
-0.04202901 -0.018964559 0.0996535 0.025630534 0.01850713 0.032098364 -0.05530663 -0.031881858
-0.011476283 -0.018458158 -0.0020867586 0.004172967 -0.047529377 0.11423492 -0.056224972 0.050185733
-0.045189265 0.010078195 0.033749778 -0.054424103 0.00415004 -0.01865285 0.051404446 -0.0044010687
0.0784457 0.044683244 0.0613935 -0.041596588 0.092048444 0.06381847 -0.011384025 -0.056418113
0.045161877 -0.08407595 -0.082853116 -0.03298194 0.07021388 0.0044628954 0.05715208 -0.019111635
-0.055619735 0.07046025 0.16292538 0.12960075 -0.032054253 -0.054465335 -0.08513966 0.120749846
0.096027 -0.08119301 -0.08649784 0.0019008265 0.082512274 0.061381638 -0.032778945 0.05034505
00000000: 58b5 32bd 0bd3 4e3b 3686 973d 894a 5c3c
00000010: 8a8a 6bbd 1467 b7bc 7312 af3d fc6e fb3a
00000020: 3421 513c ca7b 403d 4b7b a8bd c491 a8bd
00000030: 67b7 e7bc d5c2 893d 8ca4 193d 09b7 243c
00000040: 9424 153d 4021 efbd 5d3a 373d 721a 69bd
00000050: 3f2f c6bd 0ba2 963d de31 283d acaf 1ebb
00000060: 78f4 d03b 2d11 293d b8e7 f43c 3f80 343d
00000070: 9433 d63c b0ee 84bc 5a5f dabc cf28 4d3d
00000080: bf27 57bc cc7d 67bd d641 c2bc ffef 05bd
00000090: e2f9 6c3c 5d0a dfbc 742b 6f3d a434 663d
000000a0: 185c d2bd 7889 75bd aa89 b6bd c5bc 02be
000000b0: 5490 883d 9b33 9b3d 8970 013d fa30 9abc
000000c0: 6a38 03bc a1e9 6fbd faf1 c2bc be97 edbc
000000d0: 06fa c43d e646 1d3d c8f5 76bb 9250 b03d
000000e0: bfcc febb 3303 c0bd 2cea 693d 123d b4bd
000000f0: cd2d 3cbd 2905 0cbd fb18 b8bd d2b3 0b3d
00000100: ca51 25bd e010 803c 89c4 ec3c 422f b83d
00000110: 4a46 e4ba f312 9f3c 39d8 2abd d1cf b6bc
00000120: 2228 92bd cc7a 16bd cd36 efbc d4bd 7abd
00000130: fd93 a1bc e10b f9bd db9b a5bd d0e6 0a3e
00000140: cc20 163e 3a71 1abd 39a4 46bc 8514 5fbd
00000150: 18d8 953d a037 6a3c 5b25 8fbc d601 a13c
00000160: 121a b03d 1de3 02bd 0a7c 86bd 196a 09bd
00000170: 652e 02bd 94bf d53c 9a75 12bd 7a93 54bc
00000180: d11e f5bc 6091 0fbe aa4e 09bd 8623 f9bc
00000190: b22d 183d 7c20 0abc 5806 83bc a36f ccbd
000001a0: 50b4 a03d 5d3e afbc 0b88 963d 0455 953d
000001b0: e1b4 283d 28aa 5e3d 906b 663d 3c99 273d
000001c0: a1a1 4c3d 9c63 88bd 28ab 44bd dc14 b3bd
000001d0: cf38 053e d7b9 45bc 85cc f13c ca1c ed3c
000001e0: 4823 c7bd f23f 31bd f246 e2bd a39d 093d
000001f0: 8096 85bd ff54 1fbb 1be6 17bd a0b4 2cbc
00000200: cbf1 83bd 8f11 df3c e96a 4bbd 3f3f 9a3d
00000210: f4a3 b6bb f0f1 963a ccf5 dc3c 9d48 833d
00000220: 4021 9d3d 553e 2d3c 3983 35bc 500f 35bd
00000230: 0670 523c c8db a33d 605a d23c 48dc 9f3d
00000240: e576 c83d d7e8 b6bd bb7a b0bc 8f58 9b3d
00000250: 2725 19bd 955f 52bd 2944 cdbd 0c78 56bd
00000260: ec32 273c 192d 90bd f7c1 4fbd 6f64 b53d
00000270: 0854 5bbd 006b a5bd e1a7 65bd a035 a93c
00000280: e84c bebd 85a4 913d 417f 563d 4ca4 103d
00000290: 3c7b 65bd ee04 89bd d073 8ebd 4f5f 153d
000002a0: 2606 80bd 1538 edba 1acd a13c 7b99 913d
000002b0: fc03 cd3c fb8b 81bd 7e06 6b3d c6d4 c5bc
000002c0: e0f5 4a3d c895 a83c 25a3 173d d540 40bd
000002d0: 3a66 c73d 9653 e6bc ae76 833d cac5 00bd
000002e0: 46ed 44bd 447f 903b 15b1 98bd a71e 053d
000002f0: ea46 6f3d 9d9b af3d 7d89 44bd b352 f53c
00000300: 86f2 d33c f810 2f3c 6a89 9f3d a595 7a3d
00000310: 57eb a53c c62c 413d d5bf 97bd 7d9d 00be
00000320: 9c26 2cbd 905b 9bbc 2217 cc3d 20f7 d13c
00000330: 449c 973c 9379 033d 3489 62bd 8d96 02bd
00000340: 0507 3cbc 9035 97bc 00c2 08bb 62bd 883b
00000350: 2aae 42bd fff3 e93d 284c 66bd 8e8f 4d3d
00000360: 6118 39bd 031f 253c 353d 0a3d cfeb 5ebd
00000370: 0ffd 873b ddcd 98bc 788d 523d d736 90bb
00000380: 24a8 a03d c705 373d c077 7b3d 2f61 2abd
00000390: e583 bc3d 42b3 823d 1084 3abc ae16 67bd
000003a0: a9fb 383d 0330 acbd e5ae a9bd 1218 07bd
000003b0: 4bcc 8f3d 7b3d 923b 4d18 6a3d 0190 9cbc
000003c0: 85d1 63bd 774d 903d e9d5 263e 0fb6 043e
000003d0: 524b 03bd 0b17 5fbd b45d aebd b24b f73d
000003e0: cea9 c43d 8548 a6bd c825 b1bd 2725 f93a
000003f0: 32fc a83d 506b 7b3d 3743 06bd 9c36 4e3d

fc1.bias f4 [84]
0.09975291 0.07539766 0.11354359 -0.030232694 -0.003736045 -0.020462556 -0.028593635 -0.052921113
0.03765725 0.0064447606 0.009916453 0.09818015 -0.073670276 0.04058278 -0.040777918 -0.067538254
0.016221406 -0.06726531 0.07815637 0.037462365 -0.015071805 -0.03835404 -0.043835916 -0.0410168
-0.0589809 0.02841948 -0.06952702 0.034262702 0.015503027 -0.07963916 -0.056569908 0.09379366
0.054280788 0.02544744 -0.004551952 0.041315272 0.1005748 -0.090232454 0.026929647 -0.07631703
0.021826355 0.06648619 0.0015857437 0.042922653 -0.06380226 0.1318937 0.052973073 -0.07928307
0.08391777 -0.046582956 -0.046776775 0.0721656 -0.024263188 0.086558655 0.10803223 0.034544583
0.05606494 -0.08088544 0.050077416 0.06859488 0.041868605 -0.005614321 0.06291616 0.048445906
-0.018184459 0.085078634 -0.033919077 0.03393939 0.081437595 -0.01656794 0.023904568 -0.01644792
-0.035068166 -0.04299093 -0.073059276 -0.05007765 -0.07109988 -0.026455333 -0.06817725 -0.095275335
0.085221045 -0.041233156 0.09560718 0.11242409
00000000: 414b cc3d 176a 9a3d 8b89 e83d 8eaa f7bc
00000010: 6fd8 74bb 17a1 a7bc 333d eabc cfc3 58bd
00000020: 7d3e 1a3d 922e d33b 9e78 223c ad12 c93d
00000030: 71e0 96bd 213a 263d bf06 27bd 7f51 8abd
00000040: c1e2 843c 65c2 89bd 7210 a03d 2372 193d
00000050: bbef 76bc 2019 1dbd 4a8d 33bd 3b01 28bd
00000060: f595 71bd f8cf e83c 2f64 8ebd 0c57 0c3d
00000070: 6800 7e3c db19 a3bd d9b5 67bd e416 c03d
00000080: 8855 5e3d 2677 d03c 8a28 95bb 343a 293d
00000090: 29fa cd3d cbcb b8bd 909b dc3c 1a4c 9cbd
000000a0: 2fcd b23c e929 883d bbd8 cf3a aacf 2f3d
000000b0: c2aa 82bd 240f 073e 4bfa 583d 2a5f a2bd
000000c0: 14dd ab3d c5cd 3ebd 0199 3fbd 8fcb 933d
000000d0: 98c3 c6bc aa45 b13d 0040 dd3d 9f7e 0d3d
000000e0: 5aa4 653d 44a7 a5bd fa1d 4d3d 797b 8c3d
000000f0: 6a7e 2b3d 57f8 b7bb 30da 803d 376f 463d
00000100: 93f7 94bc b53d ae3d bbee 0abd 0804 0b3d
00000110: c1c8 a63d 7db9 87bc 83d3 c33c cabd 86bc
00000120: a3a3 0fbd 4217 30bd 1aa0 95bd 391e 4dbd
00000130: d09c 91bd dbb8 d8bc 84a0 8bbd b71f c3bd
00000140: 5f88 ae3d 19e4 28bd b2cd c33d 9a3e e63d

fc2.weight f4 [10, 84]
-0.05816293 0.10657855 -0.25958684 -0.062396 -0.0718641 0.12188189 -0.2066466 -0.012092504
-0.09938588 -0.21954891 0.15213934 -0.23494817 -0.00471792 -0.1511104 -0.24990225 -0.105619155
0.07306837 -0.03398147 -0.33019683 -0.07042952 -0.15073468 0.24802564 0.040353324 -0.009183479
0.1086773 0.23074804 0.13924116 0.15090033 -0.04051835 0.11346676 -0.02908648 -0.07163957
0.11402879 -0.03541043 -0.030318746 -0.01777587 0.008241797 0.08466483 0.04581472 0.056200102
0.183843 0.031518616 0.0049256803 0.0826299 0.10679346 -0.1002959 -0.033407297 0.08702323
-0.09484524 0.27842307 -0.11323826 -0.12869099 -0.13973317 0.123696186 0.22657137 0.032796428
-0.1559085 0.0017881797 -0.09653443 0.04845225 -0.12946738 0.24706453 -0.09883098 -0.09787101
-0.059181213 0.28091875 0.12927668 0.028703863 -0.28245875 -0.14548716 0.0402464 0.21021971
0.046683386 0.18178599 0.0935222 -0.081737004 -0.08265149 -0.08878525 -0.014717645 -0.051162835
0.12747751 -0.14636919 0.0449497 0.02640927 0.18744819 -0.07749025 0.0113003105 0.22014242
-0.19455214 -0.024326062 -0.085434705 0.02519851 0.09518599 -0.10943971 -0.17220308 -0.17666581
0.08508085 0.20127569 -0.07931968 -0.15465696 -0.16374508 0.16625953 0.283441 0.013635173
0.08078397 -0.08925062 0.12018708 0.015103221 0.08958993 0.04042184 0.104726896 -0.25641784
0.0511154 -0.07866409 0.042923108 -0.09812913 -0.081907436 0.051462337 -0.10630437 -0.16610184
0.17584123 0.11178434 -0.09090834 -0.12270363 -0.3323092 0.14570603 0.094774306 0.093317986
-0.031285606 0.3327979 -0.06261934 0.09844706 -0.040606655 -0.10744774 -0.041791808 0.018059667
0.041401513 0.2084303 -0.15787135 0.21962784 -0.00040554654 0.026752993 -0.003290924 0.33317134
-0.030584702 -0.08113037 -0.022949215 -0.1403061 -0.07757301 -0.2849698 0.13021779 0.05360691
0.43111217 0.11612314 -0.113882095 0.035235744 -0.090907596 -0.108275294 0.04437125 -0.2604505
-0.078172006 0.0373369 0.085832715 -0.08370723 0.13530672 0.099616 0.23818167 0.1321624
-0.118067585 -0.07697536 -0.13688366 -0.07874233 -0.31601447 0.086039595 0.09516915 -0.005695511
-0.21202143 -0.1453714 0.20265624 -0.16299544 0.01956507 0.24760315 -0.1803816 -0.22882316
0.03327665 0.22161941 0.08958149 -0.023769956 -0.012422565 0.10734893 -0.012361139 -0.057250768
-0.18543069 0.099717766 0.09155441 -0.014486595 -0.10986913 -0.054266926 0.042691655 0.036325112
0.24444541 -0.19275868 -0.079648845 0.10394598 -0.029280815 0.18877278 -0.10839224 -0.1393329
0.11661289 0.12806408 -0.15361536 -0.121574506 0.144158 -0.053975716 0.14880273 -0.044931024
0.03175087 -0.017341558 0.026418446 -0.22817135 0.33094808 0.07967792 -0.07461083 -0.091991566
0.2373701 0.070945226 0.06685487 0.002326486 -0.04816471 0.12763405 -0.13582322 -0.014114641
-0.0110747805 -0.051332872 -0.0059647053 -0.060883343 -0.11040739 -0.037854575 0.069350615 -0.06775299
0.15112813 -0.04701562 0.007738648 -0.22247483 0.018622627 -0.21113099 0.061099537 -0.018637937
-0.16434884 0.34648907 0.02200078 0.09969484 -0.049128238 -0.0081729265 0.21339877 -0.226471
00000000: 413c 6ebd db45 da3d 91e8 84be f392 7fbd
00000010: 7c2d 93bd 369d f93d 2b9b 53be a31f 46bc
00000020: d38a cbbd 6ed1 60be 6aca 1b3e 4196 70be
00000030: c898 9abb afbc 1abe 60e6 7fbe db4e d8bd
00000040: dfa4 953d 2730 0bbd 8f0f a9be 5a3d 90bd
00000050: 315a 1abe 6ffa 7d3e 8749 253d 4d76 16bc
00000060: 3492 de3d 3749 6c3e 3c95 0e3e 9e85 1a3e
00000070: 92f6 25bd 4361 e83d c546 eebc c4b7 92bd
00000080: ed87 e93d 870a 11bd 055f f8bc b49e 91bc
00000090: 9a08 073c c164 ad3d 37a8 3b3d 1432 663d
000000a0: 5741 3c3e aa19 013d 9a67 a13b dd39 a93d
000000b0: 88b6 da3d f067 cdbd 17d6 08bd 3c39 b23d
000000c0: 393e c2bd 788d 8e3e 76e9 e7bd 92c7 03be
000000d0: 3616 0fbe 6d54 fd3d 5302 683e 8c55 063d
000000e0: 7aa6 1fbe 5b61 ea3a d8b3 c5bd de75 463d
000000f0: 1993 04be 7cfe 7c3e e667 cabd 9970 c8bd
00000100: 0068 72bd 95d4 8f3e 1b61 043e 5d24 eb3c
00000110: 6f9e 90be 96fa 14be 69d9 243d d643 573e
00000120: 1437 3f3d 1b26 3a3e 9188 bf3d bb65 a7bd
00000130: 2f45 a9bd 0bd5 b5bd 4722 71bc 1f90 51bd
00000140: 7789 023e cee1 15be 2d1d 383d 4158 d83c
00000150: 6bf2 3f3e 35b3 9ebd f024 393c 046d 613e
00000160: ad38 47be 7347 c7bc 64f8 aebd 1b6d ce3c
00000170: dff0 c23d ed21 e0bd 0156 30be e2e7 34be
00000180: de3e ae3d 371b 4e3e 5b72 a2bd 655e 1ebe
00000190: caac 27be f03f 2a3e 2e1f 913e 1066 5f3c
000001a0: 1172 a53d 07c9 b6bd a524 f63d 8073 773c
000001b0: ed7a b73d 5f91 253d 0e7b d63d 3349 83be
000001c0: 625e 513d a31a a1bd 24d0 2f3d edf7 c8bd
000001d0: 16bf a7bd 2cca 523d 1bb6 d9bd 9a16 2abe
000001e0: b90f 343e 30ef e43d 272e babd 0a4c fbbd
000001f0: 6e24 aabe f633 153e 0819 c23d 801d bf3d
00000200: 5625 00bd 7d64 aa3e 923e 80bd 9d9e c93d
00000210: 2a53 26bd 900d dcbd e32d 2bbd def1 933c
00000220: a294 293d c16e 553e 07a9 21be 1fe6 603e
00000230: 899f d4b9 1829 db3c 8bac 57bb 6f95 aa3e
00000240: c58c fabc ae27 a6bd feff bbbc 67ac 0fbe
00000250: 99de 9ebd 90e7 91be d057 053e eb92 5b3d
00000260: bcba dc3e f8d1 ed3d 043b e9bd 5b53 103d
00000270: c32d babd 70bf ddbd a1be 353d c559 85be
00000280: a518 a0bd 94ee 183d 10c9 af3d b26e abbd
00000290: d88d 0a3e 7903 cc3d e5e5 733e 9555 073e
000002a0: 6bcd f1bd 42a5 9dbd 3b2b 0cbe a943 a1bd
000002b0: a6cc a1be 8735 b03d 0be8 c23d 69a1 babb
000002c0: 251c 59be 3edc 14be 1e85 4f3e 47e8 26be
000002d0: ed46 a03c ae8b 7d3e f4b5 38be 9e50 6abe
000002e0: 194d 083d 33f0 623e 8076 b73d 36b9 c2bc
000002f0: 0488 4bbc c1d9 db3d 6086 4abc c87f 6abd
00000300: 8be1 3dbe d438 cc3d e180 bb3d 2f59 6dbc
00000310: 1103 e1bd ff46 5ebd 72dd 2e3d a4c9 143d
00000320: e64f 7a3e 8862 45be ef1e a3bd a1e1 d43d
00000330: 52de efbc a74d 413e c0fc ddbd 49ad 0ebe
00000340: bdd2 ee3d 3b23 033e 584d 1dbe 0efc f8bd
00000350: 289e 133e a415 5dbd be5f 183e 9809 38bd
00000360: 330d 023d e20f 8ebc 7f6b d83c c0a5 69be
00000370: 0772 a93e 2d2e a33d 90cd 98bd 1366 bcbd
00000380: 2611 733e bb4b 913d 35eb 883d f577 183b
00000390: 5c48 45bd 80b2 023e 3e15 0bbe 1841 67bc
000003a0: ff72 35bc 6b42 52bd 9373 c3bb d060 79bd
000003b0: 451d e2bd 660d 1bbd b207 8e3d 14c2 8abd
000003c0: 55c1 1a3e 7393 40bd 7c94 fd3b 71d0 63be
000003d0: 7b8e 983c b932 58be 8243 7a3d 96ae 98bc
000003e0: 104b 28be 0467 b13e fb3a b43c cf2c cc3d
000003f0: b13a 49bd bde7 05bc 3585 5a3e 04e8 67be

fc2.bias f4 [10]
-0.16707844 0.07294983 0.03779023 0.0017819523 -0.030862555 0.08680805 0.026177485 -0.0753737
0.045288093 -0.017594995
00000000: 9c16 2bbe b866 953d eec9 1a3d 6690 e93a
00000010: 78d3 fcbc 6bc8 b13d 2a72 d63c 875d 9abd
00000020: 0280 393d 6123 90bc
