checkpoints/scale_model_tinynerf.pt (torch, 381743 bytes, 17 tensors)

mlp.0.weight f4 [32, 128]
000000 9d 71 5c 3d b6 1c 12 be dd 94 ad bd c4 db d5 3d
       0.053819288 -0.14268765 -0.08475659 0.104423076
000010 3a 7f be bd c8 65 b5 3d 2f 31 d7 bc ee d3 95 3d
       -0.0930161 0.08857304 -0.02626857 0.07315813
000020 1d 73 c6 3e 6e 98 a8 bc 21 21 7f 3d 9d ae 9e bd
       0.387597 -0.020580497 0.062287454 -0.077481486
000030 dc b4 8d 3d 8c 7a e4 bd 23 8c 71 3d 78 68 d2 bd
       0.06919262 -0.111561865 0.058971535 -0.10273832
000040 27 cb d6 bd 9e 1d c3 bc e5 de 7a 3e c5 c1 e6 bd
       -0.10487967 -0.023817834 0.2449909 -0.11267427
000050 bc c9 c4 bd ab be 06 3c be 92 44 bd 64 f8 b3 3d
       -0.0960879 0.00822417 -0.047991507 0.08787611
000060 82 a9 b0 3d 67 b8 28 be 4d 60 22 be fc 3f b9 bd
       0.08626081 -0.16476594 -0.15857048 -0.09045407
000070 b7 06 24 be f3 89 b0 bc 91 20 c5 bc 3c 81 87 be
       -0.16018187 -0.021550154 -0.02406338 -0.26465786
000080 11 e8 d4 3d ac f9 ba 3c eb d6 95 3d bb 24 6f bc
       0.10395826 0.022824131 0.07316383 -0.01459616
000090 cd 5d 92 3e 2a a6 0c ba c6 e2 71 bd 88 73 08 be
       0.2858719 -0.00053653365 -0.05905416 -0.13325322
0000a0 bb f3 22 bd d9 8b 9e bc ed 42 89 be 7d f9 25 bd
       -0.03978322 -0.019353794 -0.26808873 -0.040521134
0000b0 77 af 0b be e7 0a 0b 3b 37 52 16 be 6a 79 0d bd
       -0.13641153 0.0021216215 -0.146798 -0.034539618
0000c0 a2 ec 21 3e 18 a4 17 3e 82 40 bb 3e d0 a0 f8 bc
       0.15812925 0.1480869 0.36572653 -0.030350119
0000d0 6d 7e 7b bd 29 5e 04 be 61 88 d0 bc 8b c7 ba bd
       -0.061399866 -0.12926544 -0.025455656 -0.09120091
0000e0 82 69 8b bc d7 4b df 3d d8 bb c5 3c 3b 09 fb bd
       -0.017018083 0.10903137 0.024137422 -0.1225762
0000f0 06 93 ea bc 35 7b 37 be 8e 13 04 3e 96 9f 07 be
       -0.02863456 -0.17918094 0.12898085 -0.13244471
000100 fd 30 41 bd 82 a4 2d 3e 8f 1a 4e 3e 8a 6f 54 be
       -0.04716586 0.16957286 0.20127319 -0.20745674
000110 39 28 e4 bd 47 80 e2 bd c5 1d aa bc 11 d9 d4 bc
       -0.11140484 -0.11059623 -0.020766148 -0.025982412
000120 2e 9e e1 3d 78 63 8a 3e 9a 46 ee 3c 8e 74 f6 3c
       0.110164985 0.27029014 0.0290864 0.030084874
000130 a7 85 83 be d9 15 37 be 00 65 b0 bd a9 c1 e8 bd
       -0.25687906 -0.17879428 -0.08613014 -0.11365063
000140 df 2b 2d 3d 83 e9 9d bc 03 dd aa bd 3a 66 2a bd
       0.042278167 -0.019276386 -0.08342936 -0.041601397
000150 ca 69 54 bd d0 2f a1 bb f5 4a 41 3d 98 78 85 bd
       -0.0518587 -0.00491903 0.047190625 -0.06517142
000160 67 89 21 be 16 c0 c6 bd fb 6b 23 3e 29 9f d9 3c
       -0.15775071 -0.09704606 0.1595916 0.026565151
000170 a0 de 32 be b0 b5 1b be ce e4 e1 3c db 60 b5 bd
       -0.17467737 -0.15206027 0.027574923 -0.08856364
000180 1e 7a fc 3d 92 42 72 be ab dd 14 bd df d9 35 3d
       0.123279795 -0.23658207 -0.03634421 0.04439723
000190 c4 8e 77 3e 2a de fe bc 80 9b 47 3e 7b 56 01 bd
       0.24175555 -0.031111795 0.19492912 -0.031576615
0001a0 3c 65 0a 3e 68 09 46 3d 8f 1a 29 be f7 0e 44 bd
       0.1351518 0.048348814 -0.16514038 -0.047865834
0001b0 b8 89 a5 bd d2 b2 09 be ac 4c 95 be c2 b0 2c be
       -0.080829084 -0.13447121 -0.29160058 -0.16864303
0001c0 dd 88 5e bd 18 81 31 3e ed a0 ef bd 8e ab cc bd
       -0.05432974 0.17334402 -0.11700616 -0.09993659
0001d0 02 52 4b 3c 0c cf dc bd 24 6d 66 bc 2b 09 37 3d
       0.012409689 -0.107816786 -0.014064107 0.044686478
0001e0 25 18 12 3d da b7 90 bd 85 9f 85 bd 19 c0 f3 bd
       0.035667557 -0.07066317 -0.065245666 -0.11901874
0001f0 98 32 80 3e 6e e9 8e 3c cb 93 80 3e 05 e4 c7 3c
       0.250386 0.017445292 0.25112757 0.02440072
000200 15 fc 34 bd 89 49 97 3d 0a ce 20 3e 42 e8 63 3d
       -0.044185717 0.073870726 0.15703598 0.05564142
000210 9a 29 bd 3d 3d 1b 0b 3b ce 44 0e 3e 22 6b 37 be
       0.092364505 0.0021225952 0.13893434 -0.17911962
000220 3a 60 d2 be 16 5f e8 3d c7 5f 6a 3d ba 27 23 3e
       -0.4108904 0.11346261 0.057220247 0.15933123
000230 6b 3b 37 bd 9c 93 09 3d 01 74 69 3c fb 7c a0 3c
       -0.0447344 0.033588037 0.014248849 0.019590845
000240 1f 17 aa 3b 47 17 a6 3d 6b 52 45 be 42 01 1b 3e
       0.0051907445 0.081099086 -0.19269721 0.15137199
000250 74 b9 0f 3e f1 6b 99 bc 49 76 c4 3d 11 83 69 3d
       0.14035589 -0.018728228 0.095928736 0.05700976
000260 47 30 bc bd bf b1 35 3e 5b f5 ba 3d 84 b0 00 3e
       -0.09188896 0.17743586 0.09128829 0.12567335
000270 70 c6 dd 3d e3 a1 3a 3e ab 88 07 3e 4f de 56 3e
       0.108288646 0.18225817 0.13235728 0.20983241
000280 7b 65 f4 3c 55 bc c5 3d 30 bc e4 3c f3 bc dd 3d
       0.029833546 0.09655062 0.027921766 0.10827055
000290 eb db 9a be 40 61 dd bb d2 c4 8c 3e 21 45 36 3d
       -0.3024591 -0.006755978 0.27493912 0.04449952
0002a0 bc 4a 0b 3e ff dd a3 bc 44 7c 76 3d b7 d2 26 3e
       0.13602728 -0.020003317 0.060177103 0.16291319
0002b0 95 fc c7 3d c4 5a 99 3d 86 e0 6f 3d cd e9 ab bd
       0.09764973 0.07488015 0.05856373 -0.08394203
0002c0 71 44 31 be ce 31 0a be 31 dd 82 be 85 86 fa bc
       -0.17311265 -0.13495561 -0.2555938 -0.030581722
0002d0 1a cf 7d 3d ab df 87 3d 1d 7f 00 3d 19 b6 f2 3c
       0.061965086 0.06634458 0.031371225 0.029627847
0002e0 e8 c6 ca 3d 1f 81 77 bc 1b 08 59 3d e2 dd 38 3e
       0.099012196 -0.015106468 0.052986246 0.18053392
0002f0 ec ee 71 3c 07 82 2c 3e 28 8c 9d bd d3 af 6f 3c
       0.014766436 0.16846476 -0.07692748 0.014629322
000300 10 94 98 bb 02 c3 8c bd 9e 16 99 bd fa 29 06 bc
       -0.0046563223 -0.06873132 -0.07475017 -0.008188719
000310 25 84 8b 3d 99 89 20 3d 30 b6 a5 bd 07 15 15 3e
       0.06812314 0.039193723 -0.0809139 0.14558803
000320 02 74 c9 bd 0f 8f 2a be 6b 70 d8 bb b0 af 3e 3d
       -0.0983658 -0.16656135 -0.006605198 0.046554267
000330 9b 39 38 3e 90 0f 0f 3e 74 dc e7 3d 28 65 3c 3e
       0.17990725 0.1397078 0.11321345 0.18397963
000340 14 7b 0e 3e 0f 30 cc 3d 4e af c2 3d bb 7c 48 3c
       0.13914138 0.09970104 0.09506093 0.012236769
000350 20 7d 34 3b cb 12 56 3d c5 f3 63 3d b7 76 31 3d
       0.00275404 0.052264016 0.0556524 0.043326106
000360 a5 62 78 3e 44 30 69 3e e1 5d cb bd ef aa bd 3d
       0.2425638 0.22772318 -0.09930015 0.092611186
000370 90 3d 7b 3e d5 81 ae 3d d6 07 10 3d 9c 38 e2 bc
       0.24535203 0.08520857 0.035163723 -0.027614884
000380 1c 6b 19 be 15 e5 47 3e a5 fd 1d 3e 33 3f a4 bd
       -0.14982265 0.19520982 0.15428789 -0.08019867
000390 54 f1 6d be 45 9b 95 3d 3f 9b 5c be 8e a7 a7 3d
       -0.2323659 0.07305006 -0.21543597 0.081862554
0003a0 28 39 a1 3b 37 d9 30 3d 47 19 60 3e 20 3d 29 bd
       0.0049201436 0.043175902 0.21884643 -0.04131806
0003b0 34 0d 31 3e b8 a8 10 3e e0 19 59 3e 23 57 c6 3e
       0.17290193 0.14126861 0.21201277 0.38738355
0003c0 8d d7 13 bd fb d1 5c be e8 b1 33 3d d9 44 1f 3d
       -0.036094237 -0.21564476 0.043870836 0.038884018
0003d0 3f 79 9c 3d 26 3f b6 3c 8c df 34 bc ca 0a 9c 3d
       0.07640313 0.022246908 -0.011039626 0.07619245
0003e0 70 6f f6 3d bf 2d d8 3d f8 58 e0 3d a9 1f 71 3e
       0.12032974 0.105556004 0.109544694 0.23547234
0003f0 9e a0 1b be 4c dc e2 3c 5e c1 9d bd 6a 29 6d bc
       -0.1519799 0.027692936 -0.077028975 -0.014475206

mlp.0.bias f4 [32]
000000 25 26 da 3d 0b 5d d9 bd 24 f8 50 3d de 7b 75 3d
       0.10651807 -0.1061345 0.051017895 0.059932582
000010 bf 15 b5 3c 65 23 ea 3d 93 8a 75 3d d0 6c 33 bd
       0.022105096 0.11432532 0.059946608 -0.043804944
000020 20 32 4f 3d b4 fc c8 3c f4 f5 e8 3d d4 15 c3 bc
       0.050584912 0.02453456 0.11375037 -0.02381412
000030 5a 5b 63 bc e0 a1 56 bd e1 c9 63 3d 0c 9b cb bd
       -0.01387676 -0.05240047 0.05561245 -0.09941682
000040 84 42 f1 bc 78 98 5e bc 93 0a a9 bc b0 c4 91 3c
       -0.029450662 -0.013586156 -0.020634925 0.017793983
000050 e1 6c 94 3d 6b de b7 bd f4 3b ec bc 9d f9 41 bc
       0.072473295 -0.0897797 -0.028837182 -0.011839298
000060 45 44 cb 3c 07 30 b6 bd 5b de ba 3d e4 8f 9a 3b
       0.024812827 -0.08895879 0.09124442 0.00471686
000070 59 12 6b 3d ea 14 8c bd ca 4f 6e 3d b4 ce cb bd
       0.057390545 -0.068399265 0.05818156 -0.09951535

mlp.2.weight f4 [64, 32]
000000 01 3b 01 3d 3f 84 8d 3a 71 8e fe bd 73 90 89 ba
       0.03155041 0.0010796859 -0.12429512 -0.001049532
000010 0d 7d 0e 3e 57 c0 ac 3d ea 50 36 bd 91 50 18 3e
       0.1391489 0.084351234 -0.04451076 0.14874484
000020 54 38 2e bd a4 4a f2 3d 00 92 ad 3d cf 33 f0 bc
       -0.042534187 0.11830643 0.08475113 -0.02932158
000030 a3 db b3 38 d3 2b 5b bd 86 52 91 bd 7e dd 3a 3e
       8.576296e-05 -0.05350859 -0.07095818 0.18248555
000040 c1 47 46 bd 32 74 f0 bd 6b 12 94 3d 5b 08 8e 3d
       -0.048408274 -0.117409125 0.072300754 0.069351874
000050 55 99 ec ba 7d b2 0b be 42 2a ba bb fd 24 78 3d
       -0.0018051068 -0.13642307 -0.005681307 0.06058215
000060 8d 25 1f 3d aa 0d 36 3e 76 5a 63 3d 11 96 35 3e
       0.03885417 0.1777865 0.055506192 0.17733027
000070 af 36 b1 3d ba 53 d9 3d ce cf 6d 3c 70 e4 da 3d
       0.08653008 0.10611673 0.0145148765 0.10688102
000080 66 a0 29 be 00 4a 97 3c e3 fa ec 3c 99 bd 09 be
       -0.16565093 0.018467903 0.028928226 -0.13451232
000090 69 30 31 bd b0 75 6c bd db 24 9d 3d 8d d8 23 3e
       -0.04325906 -0.057729423 0.07673045 0.16000576
0000a0 50 60 a2 3d fa 4e 1d bd 42 77 c7 bc 16 5e 15 3e
       0.079285264 -0.038405396 -0.024348859 0.14586672
0000b0 71 20 ed bd 27 bf 13 bd 93 ab 2d bd 87 68 29 3e
       -0.11578453 -0.03607097 -0.042399954 0.1654378
0000c0 eb 9e 54 be 65 b9 11 be 0c ad 37 3d ed d8 0c 3d
       -0.20763747 -0.14230879 0.044842765 0.034386564
0000d0 8a c3 f3 3c 20 e6 9c bb 4b 73 0c 3c 70 f4 a0 3d
       0.029756326 -0.004788175 0.00857241 0.07859123
0000e0 a6 7e 9c bd f2 cb 82 3d 9d bc e6 3d 13 45 a8 bd
       -0.07641344 0.06386556 0.11266444 -0.082163
0000f0 77 a1 f8 bd 47 f7 13 be 3b fa 1d 3d ec 22 93 3d
       -0.12140172 -0.14449798 0.038568716 0.07184395
000100 bb 24 da 3d 90 da b8 3b b9 b5 bb 3d 6f 97 1f 3d
       0.10651537 0.005641289 0.0916552 0.038962778
000110 dc 16 16 bd 60 81 97 3d 7a c4 aa 3d 89 fd 37 bd
       -0.036642894 0.07397723 0.08338256 -0.044919524
000120 1b d1 41 bd 13 4b cc 3c df e0 a8 bd d5 ab e1 bd
       -0.04731856 0.024938142 -0.08246016 -0.110191025
000130 df 44 ef 3d 00 70 04 3e c1 62 45 3e 93 06 2d bd
       0.11683058 0.1293335 0.19275953 -0.042242598
000140 6d 8c 2b 3d 8e 03 0b 3e 13 8f df bd b2 30 be 3d
       0.041881967 0.13575575 -0.10915961 0.09286632
000150 25 26 ff 3d f0 ec 23 3e f2 78 26 3d 4e 8b ed bd
       0.12458447 0.16008353 0.040642686 -0.11598836
000160 12 19 85 3d 47 55 72 3d ed 4b e7 bd 72 e7 80 3e
       0.064989224 0.059163358 -0.112937786 0.2517658
000170 4f d2 36 bd 8e 14 82 3d 73 c2 86 bd 68 a1 aa 3d
       -0.04463416 0.06351577 -0.06580057 0.08331567
000180 8a ef 65 3e 88 46 13 be 74 dd 49 3e e7 94 95 be
       0.22454658 -0.14382374 0.19713384 -0.29215166
000190 5f a5 ab bd ca 1b ca bd 40 0a 3d 3e 05 6d 1e be
       -0.083811514 -0.098685816 0.18460941 -0.15471275
0001a0 58 e9 69 bd d5 1b a6 bd 03 a7 2f 3e 7e 90 3a bd
       -0.0571073 -0.08110777 0.17153554 -0.045547955
0001b0 68 b0 4b bd c9 ac 5b be d9 4c 81 3e 63 64 d8 bd
       -0.04972878 -0.21452631 0.25253943 -0.10566022
0001c0 ec c0 bc bc ff 9f ca bd 2d 25 c8 3c 39 e4 ff bd
       -0.023041211 -0.09893798 0.02443179 -0.12494702
0001d0 80 2e 3b 3e 7b ce 71 bd 3a 00 ac 3d a1 f5 ef 3d
       0.18279457 -0.059034806 0.08398481 0.11716772
0001e0 e2 f7 f0 3b 85 e6 61 be e7 d1 91 3d cf 7c 4f bd
       0.0073537687 -0.22060592 0.07120114 -0.050656136
0001f0 f4 b7 76 3e 74 bc 32 be 70 11 0c be 64 9f 22 be
       0.2409361 -0.17454702 -0.13678527 -0.15881115
000200 cb 2b fa bd 7b 6c 2f 3e 1f 0f 94 3c f2 86 0c 3e
       -0.12215384 0.17131226 0.018073617 0.13723353
000210 0c c6 5a be cc c2 32 3e ca fd db 3c b3 dc b7 3d
       -0.21364611 0.17457122 0.026854414 0.08977642
000220 9c 0f 76 be 69 3f b1 3c da 03 36 bd e0 66 76 bd
       -0.24029392 0.021636682 -0.044437267 -0.060156703
000230 31 b8 39 be 3e 27 5a 3e eb 41 50 3e 92 0e a6 3d
       -0.1813667 0.21304032 0.20337646 0.08108248
000240 ac fc 1a 3e 20 74 70 bd 6a 7b 52 3d d5 71 2d 3e
       0.15135449 -0.058704495 0.051387228 0.16937955
000250 11 6b e2 3d f7 74 dd bd 00 b7 d9 bd ce 5b 11 bd
       0.110555775 -0.10813325 -0.106306076 -0.035487942
000260 8d c0 40 3d 5d df 93 3b c1 3f 24 3d 0b 31 91 3d
       0.04705863 0.004512711 0.040099863 0.07089432
000270 84 7b 23 bc 12 17 29 3e 49 c0 95 3d 9b ac 85 bd
       -0.009978179 0.16512707 0.07312066 -0.065270625
000280 f4 9a 71 3e f2 2e ef be ff 98 36 be 7c ed a6 3e
       0.23594266 -0.46715504 -0.17831801 0.3260306
000290 58 d1 42 be b2 82 5f be 62 18 7c bc cf 49 9d bd
       -0.19025171 -0.218272 -0.015386673 -0.076800935
0002a0 df 40 21 bd 54 eb 43 3b 95 4f 75 bd 45 e6 1c 3c
       -0.039368507 0.0029894905 -0.05989035 0.009576385
0002b0 69 b9 b7 3c 7c 57 b0 bd 38 b5 11 be f8 bf 9c 3e
       0.022427278 -0.08610436 -0.14229286 0.3061521
0002c0 a8 83 a1 3e bd 09 06 3f 8c dc f3 ba 05 f0 08 3e
       0.31545758 0.5235861 -0.0018605157 0.1337281
0002d0 7c ba ae bd 74 f7 80 be e4 d3 71 3e 25 e3 8d bd
       -0.08531663 -0.25188792 0.23615986 -0.0692809
0002e0 08 7c 6c bc f2 81 bc 3e 9f 44 82 be 10 29 02 3f
       -0.014433868 0.3681789 -0.2544298 0.50843906
0002f0 71 ac b9 3c 5c 68 d0 3e 70 b2 22 be a3 f9 80 3e
       0.022665234 0.4070462 -0.15888381 0.25190458
000300 c6 f6 34 bd bf 6e 5f 3d 81 f6 98 3e 70 33 67 bd
       -0.044180654 0.054548975 0.29875568 -0.05644554
000310 1f 59 17 3d c9 02 c4 bd c4 38 59 3c 91 b7 0a 3e
       0.036950227 -0.09570844 0.013258163 0.13546588
000320 31 94 83 bc 25 24 ce bd 3f 34 d8 3d 84 59 1d 3e
       -0.016061874 -0.10065488 0.1055684 0.15366179
000330 84 56 99 3c 8f 01 c8 3d e8 b6 11 3e a8 21 ba 3c
       0.018718012 0.09765922 0.1422993 0.022721127
000340 15 b2 50 3e 83 ba b0 3c bc 05 59 3e 2b 56 47 3c
       0.20380433 0.02157331 0.21193594 0.01216654
000350 bc 08 45 be 48 88 73 3c 4b f6 5d be 59 0c e2 bd
       -0.19241613 0.014864035 -0.21675985 -0.110375114
000360 5d 33 75 3d 3f 5a c2 3d a6 f8 dc 3d 81 63 93 3d
       0.059863437 0.09489869 0.107896134 0.07196713
000370 9d 7b d2 bd 03 b4 16 3d 3d 82 12 be a3 1e 09 3b
       -0.102774836 0.036792766 -0.14307494 0.0020922802
000380 95 5c 85 3d 37 f7 c3 bc f0 17 60 3d 15 e5 e1 3d
       0.06511799 -0.023921592 0.05471033 0.11030022
000390 e3 f6 85 be 2f f6 d4 bd 6f cb df 3c cc 11 f7 3c
       -0.26164922 -0.10398518 0.027318684 0.030159853
0003a0 77 4f b7 be 75 7c cc bc 0c 90 9b be 33 49 c3 3d
       -0.35802814 -0.02496169 -0.30383337 0.09535446
0003b0 a3 3f fc bd 37 66 f6 3d 98 84 40 be d5 f3 55 3d
       -0.12316825 0.12031215 -0.1880058 0.05223449
0003c0 d2 5f ff 3c 5e 12 dc bd a8 9e a3 bd 48 1f 12 3e
       0.03117362 -0.10745691 -0.07989246 0.14269745
0003d0 a3 d4 62 be b4 84 81 bc 7c b1 e6 bd fb 97 48 3e
       -0.22151427 -0.015810348 -0.11264321 0.19589226
0003e0 6c 8f 19 be 38 ba 42 3c 7f b3 87 bd 8a 20 dc 3c
       -0.14996117 0.011885218 -0.06626033 0.026870985
0003f0 2d e2 94 be 8c bf cf 3d 23 83 2a 3e 44 55 11 be
       -0.29078808 0.101439565 0.16651587 -0.14192683

mlp.2.bias f4 [64]
000000 f2 35 a6 3d e1 b3 ca bd e0 1d ba 3d 2a 55 2f 3e
       0.08115758 -0.098975904 0.090877295 0.17122331
000010 58 d6 3d be 4d 9a f2 be 1e ff 36 bd 0c 04 ae bd
       -0.18538797 -0.47383347 -0.044676892 -0.08496866
000020 2f 7e be 3c 83 2b 4b be 82 43 6c 3d ca a4 72 3d
       0.023253528 -0.19840817 0.057681568 0.059239186
000030 41 eb 18 3e e7 ab 43 3c 5f 0d 92 3c eb 5c 30 ba
       0.14933492 0.01194284 0.017828641 -0.0006727713
000040 0f 71 9c bd 33 0a fc 3d 50 a0 8b 3d 75 fb 2f be
       -0.07638752 0.12306633 0.068176866 -0.17185767
000050 2f 13 ee be 42 9f b2 3d c7 d5 d8 be b5 19 fa 3d
       -0.4649901 0.08721782 -0.423506 0.122119345
000060 41 ce 1a 3e f2 30 13 bd 39 4b 34 be 3c bd 97 bd
       0.15117742 -0.03593535 -0.1760682 -0.074091405
000070 d4 5d 5f 3d 98 25 63 bc c3 59 09 3d c3 d3 67 bd
       0.05453284 -0.0138639435 0.03353287 -0.056598436
000080 cc 9e cc bd a8 ef 0d 3e b3 f6 a7 3d e0 82 b5 3d
       -0.099912256 0.13860953 0.08201351 0.08862853
000090 80 49 8c 3d 13 66 a1 3d 5b ba 26 be 18 a7 24 3e
       0.068499565 0.07880797 -0.16282026 0.16079366
0000a0 53 ad f3 bd 6e e0 9f bd 73 79 f5 be 48 3e ad be
       -0.11898293 -0.078064784 -0.4794422 -0.3383658
0000b0 d2 9f cd be e2 ee a0 be a2 81 50 be 7d 62 55 3c
       -0.40160996 -0.31432253 -0.20361951 0.01302397
0000c0 8b 64 a8 3d 09 f4 2b 3e 96 1a bf 3d 2a 4c ff 3d
       0.08222302 0.16792311 0.09331243 0.12465699
0000d0 08 34 2f 3c cc d9 b8 3d 43 23 66 3d dc 89 35 3d
       0.010693558 0.090259165 0.056185972 0.044320926
0000e0 95 8a 2b 3d 31 a9 2f 3d 8e d4 cd 3c e8 44 39 3e
       0.04188021 0.042885963 0.025125768 0.18092692
0000f0 82 e6 e2 3b 0b 53 99 bd a0 d7 2f 3d 4a bf 2d bc
       0.0069244513 -0.07486542 0.042930245 -0.010604689

mlp.4.weight f4 [128, 64]
000000 9c c4 12 3d 02 6f 92 bc c9 43 31 3d aa f9 42 be
       0.035832033 -0.017875198 0.043277536 -0.19040552
000010 3f c7 98 bb 66 63 df 3c ff 5b b2 3d d6 38 62 bd
       -0.004662424 0.027269077 0.08708953 -0.055229984
000020 e9 99 d6 bd 99 50 90 3d 38 15 8e bd 3c 76 1a be
       -0.10478575 0.07046623 -0.06937641 -0.15084165
000030 ff ab a8 3d 38 5d 17 bd 7f 51 92 3d 9b 7f 8a bc
       0.08235931 -0.036954135 0.071444504 -0.01690655
000040 a5 01 b6 bd 17 df 00 bd 3f 07 d1 3c 77 84 35 3e
       -0.088870324 -0.031462755 0.02551615 0.17726313
000050 a2 4f 27 bd 70 91 e3 bc f0 65 15 3e 55 58 dc 3d
       -0.04084743 -0.027779311 0.14589667 0.107590355
000060 a3 e9 46 ba 94 65 6b 3c b3 4f 13 3e 13 0f 19 3c
       -0.0007587915 0.01436748 0.14385872 0.009341973
000070 70 5f b9 bd a1 5a 4f bd 9c 17 21 3d aa 80 dc 3d
       -0.090514064 -0.05062354 0.039329156 0.10766728
000080 cc 17 95 bd 0d 7a 3b be 7e bd cc 3d 5f ad 2b be
       -0.072799295 -0.18308277 0.0999708 -0.16765355
000090 83 4f 96 bd fd 8d 82 bd 74 1c e6 3d 64 d6 45 3d
       -0.073393844 -0.06374738 0.11235896 0.048300162
0000a0 58 1e c4 bd e1 a2 f0 3a 9f ae 20 3e 06 42 21 3e
       -0.095761 0.0018359089 0.15691613 0.15747842
0000b0 eb e9 1d bc 2b d0 06 3e 3a be 37 3d cb 31 0f bd
       -0.00963829 0.13165347 0.04485915 -0.034959596
0000c0 e9 b1 c1 bd 0b 2e d5 bd bf 97 69 bd 33 71 d3 bd
       -0.09457762 -0.104091726 -0.057029482 -0.103243254
0000d0 58 44 59 bc c3 f8 d1 bd 27 c4 0f be 1c 0e 7a 39
       -0.013260923 -0.10252526 -0.1403967 0.00023847114
0000e0 03 ff 14 bd ed c7 0f be 69 ab ba 3d 47 c3 4b 3d
       -0.03637601 -0.1404111 0.09114725 0.049746778
0000f0 31 4c ed bc c0 37 fa 3c 26 6f a6 bb 05 e3 a6 3d
       -0.028966995 0.030544162 -0.005079168 0.08148769
000100 47 fd 85 bd 34 8f be 3d 21 73 da 3d e5 1f 2b be
       -0.065424494 0.093046576 0.1066649 -0.16711386
000110 26 95 f4 bd 32 8d 0b 3c 31 38 6b 3d e0 d8 a5 3d
       -0.1194251 0.00851755 0.057426635 0.08098006
000120 6e 3f a6 3d ac 0d 65 3d 8a 20 c3 bd eb 2e 86 be
       0.08117567 0.05592124 -0.09527691 -0.2620767
000130 e0 2e 6a 3d 4c 15 02 3b 22 33 8d 3c 8f 99 27 3d
       0.05717361 0.001984912 0.017236296 0.04091793
000140 c7 dc 6c 3d b6 e0 ba bd 79 83 3b bd 30 42 3c 3e
       0.057827737 -0.091248915 -0.04577968 0.18384624
000150 20 50 90 bd 54 dc 27 3d 52 be c8 3d 49 4f ac 3c
       -0.07046533 0.040981606 0.09801926 0.0210339
000160 3d ad b9 bd 07 5c 91 3d f1 2d 0c 3d 46 3b f8 bd
       -0.09066246 0.07097631 0.0342235 -0.121206805
000170 ef 8a 9b 3d 5d 8a f3 bd 15 7b 2c 3d 34 3b 42 3e
       0.07594859 -0.11891625 0.042109568 0.18967897
000180 84 ef 69 3d 92 0e cc ba 00 13 92 3d 72 97 28 be
       0.057113186 -0.0015568307 0.0713253 -0.16464022
000190 94 40 20 be ee 82 1d 38 00 06 ec 3c b9 99 ff bd
       -0.15649635 3.7553655e-05 0.028811455 -0.12480492
0001a0 3a e6 fa 3c 2d 3f a5 bd 86 9e b3 3d 98 c8 bc 3c
       0.030627359 -0.080686904 0.0877047 0.02304487
0001b0 01 1e 01 bd 00 5a 75 3d 04 33 ce 3c 5b b1 b2 bc
       -0.031522755 0.059900284 0.02517081 -0.021813085
0001c0 39 81 68 3c 4c 9c 68 3d d1 f8 27 3d 91 d2 9f 3d
       0.014190965 0.05678968 0.041008774 0.07803834
0001d0 45 c7 50 bd e7 c5 38 bc 11 d2 17 3e e0 69 e8 3c
       -0.05097129 -0.011277652 0.14826228 0.028370798
0001e0 b5 78 d5 bd 1b eb 1f 3e 43 15 8f bd 85 fa 4a 3d
       -0.10423414 0.1561703 -0.06986477 0.04955532
0001f0 f2 5a ad bc b7 87 bc bd 35 03 cd bd de de 45 3e
       -0.02116153 -0.09205573 -0.10010377 0.19323298
000200 88 30 66 bd ce 24 2f bd 23 35 ee bd f8 3b ab 3d
       -0.056198627 -0.04275971 -0.11631229 0.083610475
000210 bf 40 d8 ba e9 ec ce bd 3a e9 71 bd f3 1a b3 bd
       -0.0016498788 -0.10103781 -0.059060313 -0.087453745
000220 17 a1 84 3d 5d 05 6a 3c 4e 34 0c bd 6e 6e f7 bd
       0.06476038 0.014283505 -0.03422957 -0.1208161
000230 55 78 ac bd 5f fc 18 bc e9 d7 e8 3c c5 90 67 3d
       -0.08421389 -0.009337514 0.028423266 0.056534547
000240 c5 68 44 3d f0 77 30 3d 29 f1 66 bd 7c ed 8b bd
       0.04795148 0.04308313 -0.056382332 -0.06832406
000250 18 cd 0f bd 15 71 80 3c 9d 22 9b bd b7 dd d6 bc
       -0.035107702 0.015678922 -0.07574961 -0.026228769
000260 f4 3f c7 bd 67 a6 ac bd 55 39 72 bd 66 eb 1e 3c
       -0.09728995 -0.08430176 -0.059136707 0.009699678
000270 b0 59 8d bd 23 40 e9 3a 0f 3c a1 bc 9e e4 41 bd
       -0.06901872 0.0017795603 -0.019681958 -0.047337167
000280 2a b8 91 3d 25 aa 8f 3d 95 4f b2 3c 64 03 1a 3d
       0.07115205 0.07014874 0.021766463 0.03760089
000290 28 cd ed bc 07 67 07 3e f4 19 8b 3d 29 cb 66 bd
       -0.02902849 0.13222896 0.067920595 -0.056346092
0002a0 24 01 18 bc 3d a4 43 3d 04 f3 a4 3b d2 a8 80 bd
       -0.009277616 0.04776405 0.0050338525 -0.062822
0002b0 60 6a 10 bb 23 bf 00 3e 61 9f 73 3d d5 78 d0 bd
       -0.002203606 0.12572913 0.059478167 -0.10179297
0002c0 66 24 21 be 13 79 28 bd 26 7a ee 3b 3f 79 75 bd
       -0.15736541 -0.04113109 0.007277745 -0.059930082
0002d0 00 3e 58 bd 28 7c 91 3c fb 94 35 3d 3e fb 0f 3e
       -0.052793503 0.017759398 0.044331532 0.14060685
0002e0 a9 04 03 bd 0f 0c 1a 3d 92 4b 1e 3d d0 58 f6 bc
       -0.031986866 0.037609156 0.03864629 -0.030071646
0002f0 86 fb fa bd 13 8b 46 3d 72 a8 3a be fe 97 8f 3d
       -0.122550055 0.048472475 -0.1822832 0.07011412
000300 b7 7f 65 be 01 67 c1 3d 2b 70 e4 bd 70 09 95 3d
       -0.22412 0.094434746 -0.11154207 0.07277191
000310 3d 06 6f 3a 5d 05 43 bc 16 4a 13 3d d6 f2 bd 3b
       0.0009118056 -0.011903134 0.035959326 0.0057967706
000320 07 5b c9 bb a7 27 18 bd 47 61 f9 bb 45 f7 70 bd
       -0.0061448845 -0.03714719 -0.0076104733 -0.058829565
000330 b0 d7 90 bc 67 99 eb 3d 68 c9 ad bd 22 af a6 bc
       -0.017680973 0.115038686 -0.08485681 -0.020347182
000340 89 82 b4 bd d4 2a 23 3c 41 67 41 3c 1a fc 3d 3e
       -0.0881396 0.0099589415 0.011804403 0.185532
000350 5b 94 de bc 17 cd ed 3d a2 ce a7 3d 5a c7 2f 3d
       -0.02717035 0.116113834 0.08193709 0.042914726
000360 fb 98 c7 3d 13 5a a4 bd 07 b3 05 bd be 22 b6 bd
       0.097459756 -0.08024993 -0.032641437 -0.08893345
000370 7f 7f 2c bd 9d 87 99 3d bd de 0f 3e 9c 32 ef bc
       -0.042113777 0.07496569 0.14049812 -0.029198937
000380 59 d3 ea bd 61 c5 bc 3d d1 3d 3a 3e d7 f9 0a be
       -0.114660926 0.092173345 0.18187644 -0.13571869
000390 ed 6c e2 3d 5c c3 cd 3d ef 7b f9 3c 24 1b 43 be
       0.11055932 0.100470275 0.030454604 -0.19053322
0003a0 76 1d a2 bd 7e 73 43 be 70 50 b2 3d a5 7d 9f 3d
       -0.079157755 -0.19087026 0.087067485 0.07787637
0003b0 f4 ce 28 3c 08 df 95 bc 50 5d 01 bd 42 a7 38 3c
       0.010303248 -0.018294826 -0.03158313 0.011270346
0003c0 c7 3e 9e bd 94 bf bd bd b1 8b 8d 3a e7 bb 75 3d
       -0.077268176 -0.09265056 0.0010799078 0.05999365
0003d0 9f d5 c7 bd b7 7b 64 bb 35 b2 4d 3c d9 f6 e7 bd
       -0.09757542 -0.003486378 0.012554695 -0.11326379
0003e0 58 e8 92 bd ae 1c 9e bd dd b3 fb bc 8a 39 a7 bd
       -0.07173222 -0.07720314 -0.030725414 -0.081652716
0003f0 86 f9 a2 3d 0f 0a 99 bd a9 ea da bd c7 00 17 3d
       0.07957749 -0.07472622 -0.10689289 0.036865976

mlp.4.bias f4 [128]
000000 be 6b 88 bd ec 64 b6 bd a4 d2 16 bd 7e a8 12 3d
       -0.06661175 -0.08905968 -0.036821976 0.035805218
000010 fd 2e a4 3d 04 9d f5 bd 36 d8 0b bd 97 cf 92 bb
       0.08016775 -0.11992839 -0.03414174 -0.004480313
000020 ed 88 b0 bd 33 64 00 3e ae 41 03 bd 18 87 93 bd
       -0.086198665 0.12538223 -0.03204506 -0.072035015
000030 59 89 24 3b d1 73 65 bd c7 4d 9f 3d 0c 2e e6 3d
       0.002510628 -0.056018654 0.07778507 0.112392515
000040 71 94 ee bd 4a 77 d8 bd 6c 8a c9 bd 03 0a b5 bd
       -0.11649407 -0.105696276 -0.09840855 -0.088398
000050 5b fa 5e bd 77 93 e3 bd 70 cc ee 3b 40 a1 9e bc
       -0.054437976 -0.11112111 0.0072875544 -0.019364
000060 05 5e fa 3c b4 d4 20 bd 6a 4d 51 bd eb bf ed bd
       0.03056241 -0.03926535 -0.05109922 -0.11608871
000070 c0 20 bc 3d 06 74 d4 3d 13 3c 57 bd ad 8c b7 3a
       0.09185934 0.10373692 -0.052547526 0.0014003717
000080 a3 c4 41 3d 4e b6 0b bd 46 4a 06 bd f5 a6 79 3d
       0.047306668 -0.034109406 -0.032785676 0.06095024
000090 3c 60 10 bd 98 dc c5 bc e6 d8 ee 3d 6b be f1 bd
       -0.035248026 -0.024153039 0.11662464 -0.118038975
0000a0 6b a3 da 3d 01 ec a0 3d 5e c5 db bd e0 6a 17 be
       0.10675701 0.07857514 -0.10731004 -0.14786863
0000b0 55 3d f6 bd d2 eb bd bd ba f4 a7 3d 04 d8 4e bd
       -0.12023417 -0.09273495 0.08200975 -0.050498977
0000c0 79 95 8e bd fb 16 a3 bd 4e 70 f3 bb b4 00 0f 3e
       -0.069621034 -0.079633676 -0.0074291592 0.13965112
0000d0 43 74 3e 3d a1 c8 01 3e 87 7f ca 3c cc 00 54 3d
       0.046497595 0.1267419 0.024719013 0.051758572
0000e0 bd 87 99 3d 12 39 a3 bd 3d 3e a8 3d e6 ff a9 3d
       0.07496593 -0.0796987 0.08214996 0.08300762
0000f0 56 e3 93 3d 25 8a 75 bd 1b 1e 9b bd 34 cd 86 bd
       0.07221095 -0.059946198 -0.075741015 -0.06582108
000100 27 74 43 3e a5 16 d1 3d b1 ef 8d 3d 09 2d 23 3e
       0.19087277 0.10209397 0.06930483 0.15935148
000110 ab 66 b5 3c 4f 17 97 bd ed 16 f2 3d e4 25 fd bd
       0.022143682 -0.07377493 0.11820779 -0.12360743
000120 54 53 57 bd 14 2e 5b 3b be a0 96 3d 69 cd 9e 3d
       -0.052569702 0.0033444213 0.07354878 0.07754023
000130 11 70 b5 3d cc 00 a8 3d 54 c3 87 3d f6 aa ab 3d
       0.088592656 0.08203277 0.06629053 0.083822176
000140 e4 2c a0 bb a0 ad 44 3c a7 d7 c9 bd 5c 16 bb bd
       -0.004888164 0.012004286 -0.098555855 -0.09135124
000150 7f ea d2 3b 55 c1 c4 3b 8d 05 4d 3d 9f 02 08 bd
       0.0064366455 0.0060044923 0.05005412 -0.033205625
000160 69 ba 10 3e 03 6f a5 3d 1f d5 00 be a1 c4 4e 3e
       0.1413361 0.080778144 -0.12581299 0.20192195
000170 6c de 3e 3c 6e f5 ad 3d 6a 42 13 be b3 f3 a2 3c
       0.011649709 0.084940776 -0.14380804 0.019891595
000180 ad a6 bb bd 7b 2b ca bd ba 13 98 bd 30 0c 6b bd
       -0.0916265 -0.098715745 -0.074256375 -0.05738467
000190 e8 f9 a8 3c 6a 0a f9 bd 67 de 84 bd de ec 80 bd
       0.020626977 -0.121601894 -0.064877324 -0.06295179
0001a0 ca 57 04 bd dd 4f 6e 3d c6 dc 7f bb d2 9f a1 3d
       -0.032310285 0.058181632 -0.0039041503 0.078918114
0001b0 72 f5 9e bc ec 3c d1 38 72 ec db bd 25 78 9b bb
       -0.019404147 9.977244e-05 -0.10738458 -0.004744547
0001c0 15 ee 19 3d a3 1b c1 bc 9f f7 0d 3e 68 fa 16 3e
       0.03758057 -0.023572749 0.13863991 0.1474396
0001d0 d5 12 02 be 8e dc cd 3d 65 f6 47 bc 2b 4c ae 3c
       -0.12702496 0.10051833 -0.012204741 0.021276554
0001e0 7d 0d c4 3d 5a 0c 1b be 83 f5 91 3d 7a f2 ee ba
       0.09572885 -0.1514143 0.07126906 -0.0018230223
0001f0 73 9a 40 3e cf 07 76 bd 59 9f 9b 3d bb 83 d2 bd
       0.18808918 -0.06006604 0.075987525 -0.10279032

mlp_latin.0.weight f4 [32, 1000]
000000 e7 b7 07 bd 0f e3 db b9 46 d9 e3 bc 95 f3 4d bc
       -0.033134367 -0.00041940107 -0.027813565 -0.0125702815
000010 03 d2 f9 bc 9e 7d 70 bd 8d 52 12 bd 0d 7b 13 3d
       -0.03049565 -0.058713548 -0.035723258 0.036006022
000020 e3 b7 13 3d c4 ff 03 3d df db 50 bc 84 72 13 3c
       0.03606404 0.03222634 -0.012747734 0.008999471
000030 7b c6 2f 3c 41 a0 32 3d 9b 8a 30 3d 78 1a 18 3d
       0.010728474 0.04360986 0.043100934 0.037134618
000040 98 7e bd 3c 01 42 91 3c 17 e9 dc 3c b6 dc f8 3c
       0.023131654 0.017731668 0.026966615 0.03037868
000050 75 8b 53 3b 53 df d3 bc 09 2e 28 3d f5 8a c6 bb
       0.0032279168 -0.025863325 0.041059528 -0.0060590454
000060 a8 a6 00 bd 65 dc 52 3d 2a b5 9d bb 70 49 c5 3b
       -0.031408936 0.051479716 -0.004812856 0.0060207173
000070 63 08 8b 3c 07 28 8b bc c4 54 3b bc ce b8 34 bc
       0.016971773 -0.01698686 -0.011433784 -0.011030389
000080 9c 0f 2d bc 06 88 51 bb e7 bf 3b bd 05 94 85 bc
       -0.010562804 -0.0031971945 -0.04583731 -0.016305933
000090 1c 7c cd bc 4b 32 3f 3d b4 24 d7 3b 43 6f 90 bc
       -0.025083594 0.046678822 0.0065656547 -0.017631179
0000a0 d8 7b 85 3c ca 8d a9 3b b2 e0 9a bb 7f 4a 93 bc
       0.016294405 0.0051743733 -0.004726493 -0.017979858
0000b0 6a e6 67 3d e4 fa 69 bc b1 01 e9 3b 15 07 f6 bc
       0.056616224 -0.014281008 0.0071107973 -0.030032674
0000c0 1f bb 31 3b 68 78 de bb aa 93 74 3c 33 07 36 bc
       0.002711959 -0.006789256 0.014927784 -0.011110115
0000d0 2a 17 41 3c de 3a 54 3c 04 0f 8b 3b 86 e0 38 bc
       0.011785308 0.012953488 0.0042437334 -0.011283999
0000e0 28 85 48 3d 76 82 97 3c c8 a9 55 bc 2d 0d 75 ba
       0.048955113 0.018494826 -0.013040967 -0.00093479716
0000f0 4a ce 81 bc 3c c2 3b 3d a6 51 60 3c cc 81 ea 3c
       -0.015845437 0.045839533 0.0136913415 0.028626345
000100 9f a3 ab 3c 1d 8a c7 3c 9c b4 3b bb 40 ae 23 3d
       0.020952044 0.02435785 -0.0028641587 0.0399611
000110 9e 2e dc bc fc f9 b3 bb e6 b2 5a bc 16 71 1d bb
       -0.026877698 -0.005492447 -0.013348317 -0.0024023703
000120 c1 0c 8b 3c 2e 88 ff bc 17 85 05 bc a8 61 be 3c
       0.016973855 -0.031192865 -0.008149407 0.023239926
000130 61 c5 2d bd 17 6d 22 bd 31 e7 39 3c 65 e4 ba ba
       -0.042424563 -0.039654817 0.011346624 -0.0014258741
000140 c3 9d 72 bb 32 51 5e bd e3 75 48 3c b5 fb 5b bb
       -0.0037020303 -0.054276653 0.012235138 -0.0033566777
000150 61 b8 13 3d 36 fa fc 3c 8a ff c5 3c 41 b2 41 3d
       0.03606451 0.030881029 0.024169702 0.047289137
000160 ff 04 16 bc 25 a1 d6 39 ef 86 14 3c e0 a8 5f bb
       -0.009156465 0.00040937323 0.009065374 -0.0034127757
000170 29 1b f7 3b a2 a2 f0 3c 76 95 8b bc 11 14 0f 3c
       0.0075410795 0.029374424 -0.017039042 0.008732812
000180 7a 29 bc 3c de 0f 52 bc a8 6c 0d 3c 95 69 48 3d
       0.022968996 -0.012821166 0.008631863 0.048928816
000190 2b f8 7c 3c 14 a5 77 3d 35 00 15 39 ac cc 74 bd
       0.015440027 0.060460165 0.00014209824 -0.059765503
0001a0 49 01 d0 3c d6 ef 2d 3d 07 9c 27 3c cd c9 01 bd
       0.025391238 0.042465053 0.010230071 -0.031686593
0001b0 07 7c 1b bc e4 fc 5b 3c 53 2f a0 bc 64 9b 61 3c
       -0.00949002 0.013426993 -0.019553816 0.013769958
0001c0 48 39 c2 bc 1a cc 6c bc 93 9f 19 bc 60 66 d3 bc
       -0.023708954 -0.0144529585 -0.009376424 -0.025805652
0001d0 8c 25 e7 3a de af ba bc 12 0f ba bc 4a b5 03 bd
       0.0017635091 -0.022788938 -0.022712264 -0.032155313
0001e0 48 d7 c5 bc ec 19 8c bc 4c b3 7e bc f0 11 f4 3b
       -0.024150506 -0.017102204 -0.015545677 0.0074484274
0001f0 c3 48 35 bd 98 96 37 bb ca 51 fc bc 6f 89 ce bc
       -0.044258844 -0.0028013345 -0.030800719 -0.025212018
000200 28 3f 66 3b ac 96 58 bc 90 79 db 3a 50 05 6b 3c
       0.003513286 -0.013219517 0.0016744602 0.014344528
000210 93 02 9e b9 5b d0 bb 3c 95 b4 90 3c a8 f3 9d bb
       -0.00030138026 0.0229265 0.017664233 -0.004820306
000220 82 38 de 3c 24 3a c3 3c 89 1e 47 bc 96 8a ff 3b
       0.027126554 0.023831435 -0.012153276 0.007798503
000230 40 7b 15 bc b0 a1 6c bc 18 76 8f 39 82 93 b7 3c
       -0.009123623 -0.014442846 0.00027363072 0.022409204
000240 ae 83 88 ba a6 17 61 bc 6d 6a a0 3c ba 21 17 3a
       -0.001041522 -0.013738548 0.019581998 0.00057652185
000250 47 9b 63 3b a3 9f d0 bb 93 b5 e1 3c c8 0c 59 bd
       0.0034730004 -0.0063666864 0.027552402 -0.052990705
000260 28 d9 e4 ba e4 f8 4a 3c 76 8f 3c bc b4 86 32 3d
       -0.0017459737 0.012388442 -0.011508813 0.043585494
000270 14 61 96 3c 60 d7 32 3d 2c 93 2d bc 27 2b 0b bc
       0.018356837 0.04366243 -0.010594171 -0.008494175
000280 34 8b 73 3b 67 24 a3 3c 1c 38 27 3d a6 c5 d2 3c
       0.003716183 0.019914819 0.040824994 0.025729012
000290 39 c3 19 bc b6 ed fb 3c d6 cd 1b 3d af 54 b7 bb
       -0.009384924 0.030752998 0.038038097 -0.005594812
0002a0 ff 54 bd bb 2d 3d 3e 3d d1 9a d8 3c d2 58 86 3c
       -0.0057779546 0.04644506 0.02644101 0.016399775
0002b0 bf e1 05 bd 19 41 99 bb e6 d9 9e bb f2 0b 27 bc
       -0.03268599 -0.0046769497 -0.004847753 -0.010195719
0002c0 2c 83 85 3c 67 5d 53 bc e5 3c 13 bd 6a c0 05 bc
       0.0162979 -0.012900687 -0.035946745 -0.008163551
0002d0 5b 0d cd 3c fa 93 4f ba 2d 5d 59 3c 68 f0 28 bd
       0.025030782 -0.00079184736 0.013266844 -0.041244894
0002e0 f8 c9 b2 3b 2c db bf bc 12 df df 3c b0 69 d7 bc
       0.0054562055 -0.023419939 0.027328048 -0.026295513
0002f0 20 8a b3 bc ce a2 bd 3c 90 e7 e3 3c 47 06 84 3c
       -0.02191645 0.02314892 0.027820379 0.016116275
000300 b2 25 b9 3b 21 28 cc 3c 21 64 dd 3c 8a e4 11 bd
       0.0056502456 0.024921479 0.027025284 -0.035618342
000310 7d dd c8 3b ab ff ea 3c 87 bc 37 3c 01 2e a0 3b
       0.006129919 0.028686365 0.011214382 0.0048882966
000320 69 06 91 bc aa 28 18 3d 0c a6 dc 3c 54 4e b8 bc
       -0.017703252 0.037148155 0.026934646 -0.022498287
000330 4b 6f 05 bc 4d 4e 16 3c 8a d6 ab 39 ae e8 21 bd
       -0.00814421 0.009173942 0.00032775506 -0.03952854
000340 f6 d7 99 bc e9 69 bc 3b 64 d0 c2 3c 9a 56 01 bc
       -0.018779736 0.00574993 0.023781009 -0.007894183
000350 96 2b 5c bc 6a ac de bc 73 86 9a 3c 55 4b 6d 3b
       -0.013438126 -0.027181823 0.018862939 0.0036208231
000360 02 89 2b bc 8b f7 01 3d 47 36 4d 3c 59 f1 2d 3c
       -0.010469677 0.031730216 0.012525148 0.010616624
000370 61 16 91 bc 77 c6 b8 3c ab 8e ab 3c 7d c3 3b bc
       -0.017710866 0.022555573 0.020942053 -0.011460182
000380 49 3f 7b 3c 1a 72 20 3d 99 df a4 bc 0c a9 e5 39
       0.015334913 0.039171316 -0.02012615 0.00043804233
000390 f9 75 c4 3c 33 d7 34 bc fe ce 2a 3d a5 c2 3a bc
       0.023982035 -0.011037636 0.04170131 -0.011398946
0003a0 e8 ef 1c 3d b3 5b 88 3c e5 5d 4c 3c 0f 38 1f 3d
       0.03831473 0.016645288 0.012473558 0.03887182
0003b0 0d 8a 4e 3d fd 0c ca 3c 73 50 55 3d 32 19 33 3c
       0.050424624 0.024664396 0.052078675 0.0109313
0003c0 35 f0 94 3c d7 45 e4 bb a2 5d 8a 3c 37 2d 99 bc
       0.018180946 -0.0069663334 0.01689035 -0.018698318
0003d0 32 2e 19 3c f4 a9 2d bd ab 1d 06 bc c3 72 fb bb
       0.009349393 -0.042398408 -0.008185784 -0.007673593
0003e0 c9 37 6a 3c f9 57 94 3b f6 40 3c 3b 70 1c 12 bd
       0.014295527 0.0045270887 0.0028725243 -0.03567165
0003f0 e6 b2 0b 3d ab 13 69 bb a8 90 a0 bc ad 1b 22 3d
       0.034106158 -0.0035564702 -0.019600227 0.039577175

mlp_latin.0.bias f4 [32]
000000 26 3e 11 bd e0 4f b4 3d d0 7d 5c bc 04 4c d2 3b
       -0.03545966 0.088042974 -0.01345773 0.006417753
000010 b1 ec 1e 3d 25 9b 3d 3d 18 9b d2 3d c8 59 41 bc
       0.038799945 0.046290535 0.10283488 -0.011801191
000020 46 46 2d bd 9d 09 e7 bb b6 d3 bb 3d c0 7b cd 3c
       -0.042303346 -0.0070507065 0.0917124 0.025083423
000030 b6 1e 0c bb 1a ee 95 bd 62 73 61 bb 24 20 8b bc
       -0.002138061 -0.07320805 -0.003440105 -0.0169831
000040 9e a8 a8 bc 9b 3f fc bc f2 b3 d3 ba e3 18 11 bd
       -0.020588215 -0.030792048 -0.001615165 -0.035424124
000050 24 61 0a bc bd 12 fb bc cf d8 97 bd 56 94 5b bd
       -0.008446012 -0.030648584 -0.074144 -0.05360826
000060 84 bc c9 3d 73 2c fe 3d 96 d4 65 bc 37 fb 5c bd
       0.098504096 0.12410822 -0.014027735 -0.053950515
000070 ce 61 25 bd ee cc 27 bd 5f 6f 86 bb e5 90 ea bc
       -0.040376477 -0.04096692 -0.004102632 -0.028633544

mlp_latin.2.weight f4 [64, 32]
000000 0e 1c ec 3d 69 b6 bd bd 78 7c 5c bd d6 be 00 bf
       0.115287885 -0.092633076 -0.05382964 -0.5029119
000010 86 27 ba bd d1 6a c8 3d 76 0e 86 be 4e 7f 04 be
       -0.0908957 0.097859986 -0.26182908 -0.12939188
000020 d1 83 9a 3d e3 7a 18 3e 83 06 24 3c 58 09 be 3d
       0.07544673 0.14890628 0.010011318 0.09279126
000030 d3 7a da ba 28 ee be ba af f1 9e bd 5c 39 a5 bd
       -0.0016668685 -0.0014566826 -0.07760941 -0.08067581
000040 3b e6 af bd a8 c1 e8 bc af 70 14 be 48 24 9e 3d
       -0.08588835 -0.028412655 -0.1449611 0.07721764
000050 eb 0f 57 3d 60 2b 52 bd 6d 97 48 be 30 ae 59 bb
       0.052505415 -0.051310897 -0.19589014 -0.0033215396
000060 92 70 ec bd a3 73 cb bc f6 b5 6f bd 69 33 93 bd
       -0.115449086 -0.024835413 -0.05852314 -0.0718754
000070 5c 45 0b bd ba 61 d9 3d 4c 1c 48 bd 99 7b e9 bc
       -0.034001693 0.10614343 -0.04885511 -0.028501319
000080 86 c7 23 bd 83 a4 82 bd f7 37 fc 3c 25 75 40 be
       -0.039985202 -0.06379034 0.030788405 -0.18794687
000090 5c a1 48 bd 45 1b c3 bd 5d 9f 10 be f1 d7 57 bd
       -0.04898201 -0.095266856 -0.14123292 -0.052696172
0000a0 76 ab 1a be f4 b3 d0 3d 45 49 9d 3b 78 cc d2 bc
       -0.1510447 0.10190573 0.004799994 -0.025732264
0000b0 fe 8b f5 3b 92 73 8f 3d 36 d0 06 be aa 41 16 be
       0.007493495 0.07004465 -0.13165364 -0.14673486
0000c0 c3 73 e3 3d c0 d2 1d 3e 67 4b 07 3d 1c 93 f6 bd
       0.11106064 0.15412426 0.033030894 -0.12039778
0000d0 b4 cb 0f be 63 42 74 bd e8 ed 01 be c0 be 63 3d
       -0.1404255 -0.059633624 -0.1268841 0.055601835
0000e0 4f 7e dd be df 80 1f 3d 94 0a 06 bd fd 47 1a 3e
       -0.43260428 0.03894126 -0.03272493 0.15066524
0000f0 95 5a 0e 3e 02 67 c0 bd 61 b6 f3 3d ed 8b 28 be
       0.13901742 -0.09394647 0.119000204 -0.16459627
000100 7a 81 be bd 4b 9f 45 bd 18 f6 60 3d 6b 78 7e be
       -0.093020394 -0.048247617 0.054922193 -0.24850623
000110 8f 55 b6 bc 46 a4 e9 bc 2f 63 76 bd 98 13 1b 3d
       -0.022257594 -0.028520714 -0.060153183 0.037860483
000120 1c 30 eb bd 09 11 8e 3d 6b e8 1f 3d 1b 67 27 bd
       -0.114837855 0.06936843 0.03904001 -0.040869813
000130 e6 45 9d 3d b5 78 c9 bd e8 85 fa 3b 98 e2 07 bd
       0.07679348 -0.09837476 0.0076453574 -0.03317508
000140 04 37 5d 3d 01 42 27 3e 35 9c 55 be 9f 7e 3d 3d
       0.054007545 0.16333772 -0.2086037 0.046263333
000150 eb 91 e9 bc 32 08 14 be 95 29 df be 36 9e 1b 3e
       -0.028511962 -0.14456251 -0.43586412 0.15197071
000160 27 88 d7 bd e0 f1 97 bd 91 cd 0d be 6e e4 20 3e
       -0.10524016 -0.07419181 -0.13847949 0.15712139
000170 7d b0 2a 3e 32 10 60 3d 0d 2c 95 bd 24 c2 fc 3b
       0.16668887 0.054702945 -0.07283793 0.007713573
000180 cd 11 12 3e b1 48 8e 3d 69 0e 9a 3d 8a d0 1e be
       0.14264603 0.069474585 0.0752228 -0.15509239
000190 5c 92 92 bd 4c 57 4c be 08 6f c4 bd f9 f4 46 bc
       -0.07156822 -0.19955176 -0.0959149 -0.012143367
0001a0 cd e7 77 bc 35 41 40 3d e2 18 6d be 43 5e 83 bd
       -0.015130949 0.046937186 -0.23154023 -0.06414463
0001b0 7c d4 d8 3d eb cb d6 bd 35 e7 17 3e a7 54 94 3d
       0.10587403 -0.10488113 0.14834292 0.07242709
0001c0 e8 8d ec bd 0d 2c 40 bc 8e f4 3d be 54 ab bd 3d
       -0.11550504 -0.0117292525 -0.18550321 0.09261194
0001d0 82 e5 e8 bd a7 f1 ad be 5b c7 08 3e 7f 12 9b 3c
       -0.113719 -0.3397343 0.13357298 0.018929718
0001e0 a2 22 7b be cb ff 1d be 86 65 38 3d 81 5e 18 3e
       -0.2452493 -0.15429609 0.045018695 0.148798
0001f0 4a 38 ba 3d 1e c0 5d 3d b3 7d 89 3d 36 3c 3c 3e
       0.090927675 0.054138295 0.06713428 0.18382344
000200 f1 d6 0f 3d 9a 17 24 bd 8e cb f9 bd 09 a5 83 be
       0.035117093 -0.04006157 -0.12197028 -0.2571185
000210 e6 fa 75 3d fb 78 2e 3d 69 e4 95 be 6d 5d 61 be
       0.06005373 0.042595845 -0.29275826 -0.22008295
000220 77 7d f6 bd 6f d9 09 3e 37 86 f2 bb 1d dd 08 be
       -0.12035649 0.1346185 -0.0074012536 -0.13365598
000230 14 6a 0d 3e e4 d5 11 be 86 59 0f 3c a0 93 11 be
       0.13809997 -0.14241749 0.008749371 -0.1421647
000240 47 63 15 3e c8 42 12 bd 53 aa aa 3c fd 51 f3 bc
       0.14588653 -0.03570822 0.02083317 -0.029702181
000250 b1 46 06 3c 81 1f 8b bd ed 49 23 be bc f4 3b 3e
       0.008195565 -0.06793118 -0.15946169 0.18355078
000260 70 43 d6 3c e9 f4 0e be 8f 09 13 3d 80 b3 10 3d
       0.026155204 -0.13960613 0.035897788 0.035327435
000270 ae 0e ca 3d bd 4f f1 bc 88 88 b6 bd 71 c8 a7 bd
       0.09866081 -0.029456967 -0.0891276 -0.08192528
000280 72 00 b0 bc b5 12 93 be 7f c1 0e 3e 53 0a ec be
       -0.021484587 -0.2872521 0.13941 -0.46101627
000290 81 48 d9 bd 9a e4 4d 3d e1 2a de bc 0d 61 a5 be
       -0.10609532 0.05026684 -0.027120056 -0.32300606
0002a0 6f 26 2a 3d f8 29 69 3d a8 88 8b 3c b1 ee 46 bd
       0.04154056 0.05692479 0.017032936 -0.048567478
0002b0 8c 68 05 be 84 a6 05 3e fc 4c f9 ba 0e a1 5d bd
       -0.13028163 0.13051802 -0.0019020136 -0.05410867
0002c0 8a ba 9c 3d d6 fc a0 bd fa ce ba be fb 98 9f bd
       0.07652767 -0.07860725 -0.36486036 -0.077928506
0002d0 d7 a8 31 bd cc 02 69 bc 88 4a db bd 28 e5 e4 bd
       -0.04337391 -0.014221858 -0.10707575 -0.111765206
0002e0 d7 dc 10 bd f6 27 ba be a3 c7 df 3c 1f d2 26 3e
       -0.03536686 -0.36358613 0.027316874 0.16291092
0002f0 47 05 c2 3d 66 5f b8 bd da 14 68 3e 12 c3 81 bd
       0.09473663 -0.09002571 0.22664204 -0.06336035
000300 95 5f eb 3c 79 49 9c bd b1 a5 2e 3e 40 59 54 3d
       0.0287321 -0.07631201 0.17055394 0.051842928
000310 b0 2b 1f be 4e 4e e6 3d 79 93 89 bd 17 5d 06 be
       -0.15544009 0.11245404 -0.06717581 -0.13121448
000320 bc 4e 16 be f2 c9 87 3c 6b 83 56 be d1 2e f3 3d
       -0.14678472 0.016575787 -0.2094857 0.11874164
000330 e1 77 fc bd a3 f4 80 3d 26 ef f9 bd 32 6c 3a 3e
       -0.123275526 0.06296661 -0.12203817 0.18205336
000340 a9 93 c6 bd de d7 11 3e 71 60 b2 bd a5 ae 0e 3e
       -0.09696133 0.14242503 -0.08709801 0.13933809
000350 b1 ac 0b 3e 6b 72 a6 bd 62 f2 60 bb 7e 08 09 3e
       0.13640095 -0.08127292 -0.003432416 0.13382146
000360 3d 26 d3 bc 96 29 30 bd d5 64 86 bd f7 57 16 be
       -0.02577507 -0.04300841 -0.06562201 -0.14681993
000370 62 c5 2d be c3 5e 5f be fd 24 0d be 16 11 21 be
       -0.16969827 -0.21813492 -0.13783641 -0.15729174
000380 af 12 03 be 32 91 82 3d 7d 8f 8d bd 70 b3 44 bd
       -0.12800096 0.0637535 -0.06912134 -0.048022687
000390 58 5d 26 be 7c b3 f2 be 18 b1 c1 3c bc e0 8f bc
       -0.16246545 -0.4740256 0.023644015 -0.017563216
0003a0 57 15 c1 3b 05 b2 13 3d 73 fd cf bd b9 6d c3 3c
       0.0058924365 0.036058445 -0.101557635 0.02385603
0003b0 8b 0a 1f bc 90 79 f0 bd c4 75 b1 3c f5 af 1a be
       -0.0097071035 -0.11741936 0.0216626 -0.15106185
0003c0 fe 8c c0 3d 44 94 43 bd 3e c3 0d bd 07 1c 2a be
       0.09401892 -0.04774882 -0.034610026 -0.16612254
0003d0 e5 09 00 be c2 ec 40 be 19 30 59 3d e0 eb 3a 3d
       -0.12503774 -0.18840316 0.053024385 0.045635104
0003e0 ec df 30 bd 39 c2 e2 bd 3b f3 c4 bd e5 4e e3 bd
       -0.0431823 -0.11072201 -0.09616705 -0.11099032
0003f0 aa 7c 2d 3e 6c 37 fb bd b0 57 d0 bd 5c 42 e4 bd
       0.16942087 -0.1226643 -0.10172975 -0.111454695

mlp_latin.2.bias f4 [64]
000000 a5 ab 05 bd 6b 01 1a bc 71 89 8a 3d 6e de b1 be
       -0.032634396 -0.009399752 0.06764496 -0.34740013
000010 1c 7c 7a be 06 9a ce be 95 1e 04 bd 82 09 5c bd
       -0.24461406 -0.40351886 -0.032255728 -0.053720005
000020 5d 30 68 be c8 f4 23 bd 41 7b 33 3e 15 c2 92 3e
       -0.22674699 -0.040028363 0.17527486 0.28663698
000030 31 42 29 be f7 b4 0c bc 0b ee 72 be 42 58 82 bc
       -0.16529156 -0.008588067 -0.23723619 -0.015911225
000040 1c 91 79 bd f8 65 08 3d c5 e6 d8 bd 6b 84 36 3e
       -0.060929403 0.03330037 -0.10590891 0.17823951
000050 0c 4f c5 3d b9 0e 2f bc 88 42 9c bd 33 2d 55 3d
       0.096342176 -0.0106846625 -0.07629877 0.05204506
000060 a0 d2 84 3d 83 8f 69 be 6d 33 61 bd 0e 4c b2 3d
       0.06485486 -0.22808652 -0.054980684 0.087059125
000070 85 fd 14 be 43 ae a1 be 60 b2 9d bc 2f cf bb bd
       -0.14549835 -0.31578264 -0.019250095 -0.091703765
000080 76 5d 2f 3b 1f a4 1d be 5f 54 ad bd cd 08 bb 3d
       0.0026758588 -0.15394638 -0.08463358 0.09132538
000090 1d 3e 27 be c9 92 a2 3d 19 c2 b0 bd bd 93 3b bc
       -0.16332288 0.07938153 -0.08630771 -0.011448798
0000a0 77 48 86 bd 63 39 95 be a9 fd 87 3c f9 fd 9b be
       -0.0655679 -0.29145345 0.016600447 -0.30467203
0000b0 47 34 57 be b5 5b 5a be 28 e5 01 be ed 2b 10 be
       -0.21016036 -0.21324046 -0.12685072 -0.14079256
0000c0 f2 cb 77 be f4 62 93 bd 4a 44 2d be 2f d6 9c be
       -0.24198893 -0.07196608 -0.16920581 -0.3063216
0000d0 9a 20 39 bd 3c 2c 52 be d8 19 34 3d 5c 34 c6 3d
       -0.045197107 -0.20524687 0.04396996 0.096779555
0000e0 96 42 64 be a1 97 75 be 65 fc cc be 8e ba 9d be
       -0.22291026 -0.23983623 -0.40036312 -0.30806392
0000f0 71 a1 7a be 71 96 94 be 34 88 60 bd 14 58 2e 3d
       -0.24475648 -0.29021028 -0.054817393 0.042564467
